pytorch_models/TD3_MultiDimensional-v2_0_critic.pth (torch_old, 988958 bytes, 10 tensors)

l1.weight f4 [400, 6]
00000000: 7d9f 46be 5bf7 cd3e f02d bdbe bea7 123f
00000010: 3c52 78bd 2bd4 76be 8266 b3be bc99 5fbe
00000020: 4006 95bd 8d3e 72be 8295 af3e b2fd 7abd
00000030: 8bec 2fbe 1e36 993e c917 59be 96e4 4e3e
00000040: 2072 5cbc 06de b7be e4bf 373e 89cd c13e
00000050: 8eac 29bd 06ac ae3e 511a 19be 99cb 613e
00000060: 8b21 adbe 8b49 3ebe 8d5f cb3d 62ae 4d3c
00000070: d4c9 f6bb caf4 41bd 99b9 b8bd 9163 b3be
00000080: 6e48 6c3e 5fd8 263e 78bc afbd fffb 463e
00000090: 8311 4cbe d52e e73d 19fd 81be 9757 e63e
000000a0: 5f9a b33e 3eb9 acbe c261 82be ceaa 913e
000000b0: 9f9f 4a3d 59f7 463e 32a0 adbe 007a 2a3e
000000c0: 8d36 1e3d 9697 c73e 5d25 a1be f900 063f
000000d0: 7d60 323e da40 bcbe 911e 56bb 0d6d 913e
000000e0: aa91 233e c31e d7bd 0840 a83e 06c2 5fbe
000000f0: 9136 003e 2357 d83d d544 bd3c efc1 cfbe
00000100: d3f1 73bd d159 d6be b306 933e 82b0 903e
00000110: 5ad6 96be e118 f33e 4be9 b23e 8d23 bd3e
00000120: 20b9 bdbe e17a 5bbe 34e4 84be 331c c83d
00000130: 93a8 aabe 98c8 4abe aa17 ccbd 28d4 8f3e
00000140: df8d 8e3d 8396 cf3e 2b9e 26be 73ad 9fbe
00000150: def1 bf3d 434d 013e 0b8d 3abd 41f6 3a3e
00000160: ba87 cf3e d929 a2be 516a b2be 4f97 ba3d
00000170: 4f35 803e 8341 933e 3d30 0bbd 25cf 7ebe
00000180: 413a abbe 190b 55be 20dd a23d 6652 e3bb
00000190: fb8a bbbd a433 2abe 7618 30be c0b6 c63e
000001a0: 0a2e 5bbe e742 b83e b7e5 3abe 1d43 a7be
000001b0: 0bf2 f73d 02fe 663e 2c38 5abe bb17 30be
000001c0: 6838 29be 1aee 0e3d acc0 fd3c 7ba7 8dbd
000001d0: d8ab 863c ee7f 583e dd41 7ebe 0f72 8a3e
000001e0: c971 843e ee26 b53e 57f2 9c3e 2e69 063e
000001f0: e878 5abe d1bf 873d 5ef9 2ebd 2e5d 21bd
00000200: 916a 39be a815 a7be 5c36 96be 33e7 0b3e
00000210: b8f5 433e 043a b23c 7fdb debc 3b5d 1c3e
00000220: 0a13 863e 3695 953c 70bb b8be f87d 893d
00000230: 04ff 623e 21fc 1ebe 7188 83be 6f15 a13e
00000240: 9c5c 9c3e 63dc b53e f4d5 343e c12d 8b3e
00000250: fbbe 9cbe 95df bf3e 3b55 c8be f811 26be
00000260: e972 c53e 8065 bd3e 69fa 943e 0ad4 89be
00000270: 8703 81be e4c6 75be 7cab af3e 5651 e0be
00000280: 277d c8bd b38a 68bd ce1d 8ebe 6623 59be
00000290: 37d3 c6bd e2ff eebe 7c68 853e 6b99 83be
000002a0: ffdd 913e 4124 843e 7c06 94ba 293f f03e
000002b0: c0f3 58be 0228 b53d 7164 923d de24 60be
000002c0: 51ec 25be 8330 d03e a5a7 813e ae24 ce3e
000002d0: 26a4 b5bd 2bb8 14bd a152 933e 3b9a 993e
000002e0: d6b2 cabe 5f83 d1be e099 423d fd12 edbe
000002f0: 3a39 2d3f 8de7 f7be a30c 2cbc aeaf 07bd
00000300: ddc4 aabe f815 953d b6b9 e83c c7c8 5b3d
00000310: 0163 96be 452d 743d 41d1 82bb 0956 0dbe
00000320: efdd 66bd c72c a53e e4dd 4c3e 1111 7dbc
00000330: ac1d cdbd 434e 82be 58bc dd3e 3054 223c
00000340: 9d03 db3c 669e a2be dd49 22be 0fd4 b1be
00000350: e9c1 973c f845 c43d 38f0 643e 13c7 f73b
00000360: 6ddd 0d3d 5a8d 033e 48a8 1abe 8783 8a3e
00000370: 6956 5fbe 0557 82be b951 72be 71ad 86be
00000380: 63a2 643e be01 c3be d7c2 2aba a1e5 dabb
00000390: b86d 81be 49b9 bfbd aa14 02be 609f f4bd
000003a0: d0b6 713c 6d70 ed3d e3a1 36bd 7476 eebd
000003b0: 1980 0d3c d822 56bd 350c 4cbd 39c5 78bd
000003c0: 1c3e cfbc 2179 b43e 8eed 24be efad 933e
000003d0: 70fb b33e df7d 923e 0b22 11bd 71a1 573e
000003e0: 1c34 733e 0dec ec3c bc56 5a3e 3f8f 93be
000003f0: 0607 1d3e 91c1 09be df66 003d 2c73 38be
-0.19396777 0.4022778 -0.3694911 0.57287204 -0.0606253 -0.24104373 -0.35039145 -0.21835989
-0.07276583 -0.23656674 0.34293753 -0.0612771 -0.17180078 0.299241 -0.2120048 0.20204386
-0.013454944 -0.35911578 0.17944294 0.37852123 -0.041424327 0.34115618 -0.14951445 0.22050323
-0.33814654 -0.18582742 0.09930334 0.012553783 -0.007531384 -0.04735259 -0.09019775 -0.350369
0.23074505 0.16293477 -0.085808694 0.19432066 -0.19928555 0.112882294 -0.2538841 0.449887
0.35078713 -0.3373508 -0.25465208 0.28450626 0.049468633 0.19430293 -0.33911282 0.16648102
0.038626242 0.38982838 -0.31473818 0.52345234 0.1741962 -0.36768228 -0.0032672028 0.28403512
0.15973535 -0.10503914 0.32861352 -0.21851358 0.12520815 0.10563495 0.02310411 -0.40577647
-0.059556793 -0.418654 0.2871605 0.28259665 -0.29460412 0.4747992 0.34943613 0.36941186
-0.37055302 -0.21433593 -0.25955355 0.097710036 -0.33331737 -0.19803083 -0.09965451 0.2809155
0.069606535 0.4054452 -0.16271274 -0.3118702 0.093723044 0.1262713 -0.045544665 0.18258001
0.4053324 -0.31672552 -0.34846738 0.09110891 0.2504067 0.2876092 -0.03398155 -0.24883707
-0.33442882 -0.20805015 0.079523325 -0.006937313 -0.09157368 -0.16621262 -0.17196831 0.38811302
-0.21404281 0.35988542 -0.18251692 -0.3266839 0.12106713 0.22557834 -0.2131049 -0.17196552
-0.16525424 0.03489504 0.030975662 -0.0691671 0.016439363 0.21142551 -0.24829812 0.27040145
0.2586806 0.35381263 0.3065364 0.1312606 -0.21335185 0.06628383 -0.042718284 -0.039395504
-0.18107058 -0.3263371 -0.29338348 0.13662414 0.19136703 0.02175618 -0.027204273 0.1526994
0.261864 0.018259626 -0.36080503 0.0671348 0.22167593 -0.15525867 -0.25690034 0.31461665
0.30539405 0.35519704 0.17659742 0.27183345 -0.30614457 0.37475267 -0.39127526 -0.16217792
0.38564232 0.369915 0.29097298 -0.26919585 -0.25198004 -0.24001652 0.3431052 -0.43812054
-0.09789496 -0.0567729 -0.27757114 -0.2120491 -0.09708255 -0.46679598 0.26056278 -0.25702986
0.28489682 0.2580891 -0.0011293436 0.46923187 -0.21186733 0.088455215 0.07148064 -0.21889064
-0.16203429 0.40662012 0.25323215 0.4026236 -0.088691995 -0.03630845 0.28773978 0.3000048
-0.39589566 -0.4092054 0.047510028 -0.4630355 0.67665446 -0.48418847 -0.01050106 -0.033126526
-0.3335332 0.07279581 0.028408866 0.053658273 -0.2937241 0.059613485 -0.00399223 -0.13802351
-0.056363996 0.32260725 0.2000652 -0.0154459635 -0.10015425 -0.25450334 0.43307757 0.009907767
0.026735121 -0.31761473 -0.15848489 -0.347321 0.01852508 0.09583658 0.22357261 0.0075615733
0.034634996 0.1284689 -0.15103257 0.27053472 -0.21810307 -0.25457016 -0.23663987 -0.263042
0.2232757 -0.38087267 -0.0006514019 -0.006680206 -0.2527902 -0.09361512 -0.12703195 -0.11944461
0.014753059 0.11593709 -0.04458798 -0.11643687 0.008636498 -0.052279323 -0.04981633 -0.06073496
-0.02529817 0.35248664 -0.16106245 0.28843638 0.3515277 0.28611657 -0.035432857 0.21057679
0.23750347 0.028921152 0.21322149 -0.28820226 0.1533471 -0.13452746 0.031348106 -0.18012685

l1.bias f4 [400]
00000000: 21a0 76be 0d04 d93d 9710 403e 3013 1ebd
00000010: 610e c1bd 51b0 033e b0c9 38bd 69e8 adbd
00000020: 6018 e5bd 11fd c63d ed5d c3be 53d3 a6be
00000030: bcb5 b2be 6d5a b43d 14e8 463e a331 853e
00000040: 5a90 ab3e 3168 15bd 3ee6 0e3e 4f0f 83bd
00000050: a9b3 a4be 384e 74bc 17f8 4a3e d252 b2be
00000060: 2ac5 2c3e 4aa0 bbbe 9a5e d53e 11e1 933e
00000070: 431f 0bbb 67c7 6abd 4f8f 80be 474d b2be
00000080: a3b0 da3d 1aca b5bd ca4d b3be 52de 91be
00000090: 686a 3b3e d1d5 ab3e c212 8fbe adae 2b3e
000000a0: 9fe5 863e 74ec db3c ae4f c6bd 31d9 56be
000000b0: 3119 163d ddc4 6e3e 81c2 7a3e f876 18be
000000c0: 78db 7abe d9b8 b8bd d91d b4bd 5aa3 993d
000000d0: 5b10 2cbe e4b0 b1ba 9bed 52be 813f 5a3e
000000e0: 7538 903e 8a1e 30be 4c9f bcbe ce72 46be
000000f0: 2cd7 873e c9d0 9ebe 420e edbc d64d a93e
00000100: 1fd9 c1be 603d 653e 2688 af3e 3d4d 06be
00000110: 74f7 a73c 1d48 8bbe fb30 283d a76e d63d
00000120: fb63 b23e 622b a2bd 9daf 9c3d b056 8fbe
00000130: b768 7cbe 54d9 71be 2420 a83e 782c 92be
00000140: 02d6 a6be 7f54 573d 22d9 a0bc 2ef4 66be
00000150: b5dc 993e 7b35 67be 232e db3d c11b b4bd
00000160: 6dcd a73e 394a bebe f17d bc3d dee3 00bc
00000170: 7821 a73e 19ac 463e c114 ad3e 11cf d83e
00000180: 1af5 a63d b68a 9dbe 6ee2 8c3e 7c6f e63c
00000190: 2ad7 c8bd 572a 093e c24b 4a3e 944f b7be
000001a0: e32e 87be 990b a5be 54c6 22be 36d1 e63e
000001b0: aa54 d13e fa41 573e 9142 b2be a09e 51be
000001c0: 9e00 603e f529 b7bb e72a 86be 9e3d 77bd
000001d0: b77f 8bbe 3587 18be 1a57 a43b e286 bb3b
000001e0: 8f6e 723e f47c 5dbe 1fbe 06be 1bbe 963e
000001f0: b9aa eabd 9eab c03e 3790 27be 8933 ca3d
00000200: c7a6 633c 6844 c4bd 6484 d73e 9b6d c33d
00000210: 4934 6abd 74f6 e8bd b64f 85be be28 9abd
00000220: dd60 ba3e 6c8d 52be 7d7c fc3c 09ab 8dbe
00000230: d00e 79be 1c98 ab3e 55bc 82be 5f54 293e
00000240: b5b4 01be f01b 45be 4f8f b5bc ca87 aebd
00000250: d7f8 2ebe a96f 00be 6379 36be 80c5 edbc
00000260: a4b7 5abe 8cd3 dc3d f469 abbe cc21 08be
00000270: 8070 debe f31f 1bbe 9e49 52be 48aa 90be
00000280: ca38 9f3e fcd5 5c3e e9c6 c73d ec3b 5fbe
00000290: 7502 a5be 25a6 033e fd07 12bc 761d 44be
000002a0: 16f7 b23e f81a 9abd 7416 86bc b334 92be
000002b0: 33a5 16bd 8797 0ebc e6ce 32be 9d38 26be
000002c0: 2423 b43c 808d 383e 4217 8d3e afaa 8ebe
000002d0: 5642 88be bbaa a7be 62e2 903c 0fd3 87be
000002e0: 087f aa3e 3b6d 71bc 47b2 2cbe 4017 a6be
000002f0: 4c71 8ebe 889a d4bc 262a 823e cd9c 9a3e
00000300: c105 58bd 7b56 af3e 31cc 76bd 3277 69be
00000310: a3d5 7dbe b098 a13e 2376 7cbe 171d 84be
00000320: 109d 00bc 147c abbd bec5 98be b45c a23e
00000330: 99fd 3fbe 1e6b b3be 37fc 9c3e 72c3 94be
00000340: de1e 133e 282c e53d f688 88be aee3 acbe
00000350: ad6e 463e 984f d13e a8a4 bd3e fad2 afbe
00000360: 5752 063e 840e acbe 5134 6e3e aa12 b33e
00000370: 71f6 4dbe 15fd 9b3e fef6 2b3e 53fb 883e
00000380: a381 94bd 7d10 663e 59b8 2c3e 2253 423e
00000390: 2351 d5be 4257 9d3e e79b 98be e756 43be
000003a0: 7f30 b13e ea61 8a3e ca6f 823e 2115 a43d
000003b0: fee4 5dbc 2662 ab3e 9ca5 32bd f444 5c3e
000003c0: 03ce 67bd 3275 90be 3ee7 bc3e 3b54 823e
000003d0: 8f5b b1be 5b3a 993d a00b 14bd f168 ca3e
000003e0: d846 99be 9704 7fbe 21f7 cebd c912 ac3e
000003f0: 9763 cbbe e34e 903e 40a0 c9bd b5b4 89bc
-0.24084522 0.10596476 0.18756329 -0.038592517 -0.09426571 0.12860228 -0.04511422 -0.08491594
-0.1118629 0.09716237 -0.38157597 -0.32583103 -0.34904277 0.0880631 0.19424468 0.26014432
0.3350857 -0.036476318 0.13955018 -0.06399404 -0.3216832 -0.014911227 0.19821201 -0.34828812
0.16872087 -0.36645728 0.41673738 0.2888265 -0.002122835 -0.05731907 -0.25109336 -0.34824583
0.10678222 -0.088764384 -0.35020286 -0.2848993 0.1830231 0.33561566 -0.27944 0.16765852
0.26347062 0.026846148 -0.096831664 -0.2098129 0.03664512 0.23317285 0.2448826 -0.14889133
-0.24497783 -0.09019632 -0.087947555 0.0750186 -0.16803114 -0.0013556746 -0.20598452 0.21313287
0.28168073 -0.1719915 -0.36840284 -0.19379732 0.2653135 -0.31018665 -0.028937463 0.33067197
-0.37860963 0.22386694 0.3428356 -0.13115402 0.020503737 -0.27203456 0.041062336 0.10470324
0.34841904 -0.07918431 0.07650683 -0.27995825 -0.2464932 -0.2361806 0.3283702 -0.28549552
-0.3258515 0.052570816 -0.019634787 -0.22554085 0.300512 -0.22578995 0.10702159 -0.08794356
0.32773915 -0.37166002 0.09203709 -0.007866828 0.32642722 0.19401588 0.33804896 0.4234548
0.08152218 -0.3076989 0.27516502 0.028129332 -0.09806664 0.13395058 0.19755462 -0.358029
-0.2640296 -0.3223541 -0.15895969 0.4508149 0.40884906 0.21021262 -0.3481641 -0.20470667
0.21875235 -0.0055897185 -0.26204607 -0.060361497 -0.27245876 -0.14895327 0.005015266 0.0057228664
0.23674987 -0.21629697 -0.13158463 0.29441914 -0.11458344 0.37630934 -0.16363607 0.09873111
0.013894743 -0.0958336 0.42093194 0.0954239 -0.05717877 -0.11375132 -0.26037377 -0.07527302
0.36402026 -0.2056176 0.03082108 -0.27669552 -0.24322057 0.33514488 -0.2553431 0.16536091
-0.1266659 -0.19248939 -0.022163061 -0.085219935 -0.17087112 -0.12542595 -0.17819743 -0.02902484
-0.21359116 0.10782537 -0.33479273 -0.13294142 -0.43445206 -0.15148906 -0.20535895 -0.28254914
0.31098014 0.21566004 0.09754736 -0.21800202 -0.32228437 0.12856348 -0.008913037 -0.19151863
0.34954137 -0.07524675 -0.016368128 -0.2855583 -0.03677864 -0.008703119 -0.17461738 -0.16232534
0.021989413 0.18022728 0.27556807 -0.27864596 -0.2661311 -0.32747445 0.017686073 -0.26528212
0.33300042 -0.014735515 -0.16864882 -0.32439613 -0.27820814 -0.025952592 0.25422782 0.30197755
-0.052739862 0.34245667 -0.060253326 -0.22799376 -0.24788527 0.31561804 -0.2465444 -0.25803444
-0.007849947 -0.083732754 -0.29838365 0.31711352 -0.18749084 -0.3504266 0.30661175 -0.29055363
0.14367244 0.11190063 -0.26666993 -0.33767456 0.19378157 0.40881038 0.37039685 -0.3434065
0.13117348 -0.33604825 0.23262145 0.34975177 -0.20113541 0.30466524 0.16793439 0.26754245
-0.07251289 0.22467227 0.16867198 0.18977025 -0.41663465 0.30730635 -0.29806444 -0.1907612
0.34607312 0.27027828 0.25475913 0.080118425 -0.0135433655 0.3347332 -0.04361497 0.21510679
-0.056592952 -0.28214413 0.36895174 0.25454888 -0.34640166 0.074818335 -0.0361439 0.3953319
-0.29936862 -0.24904095 -0.1010573 0.33608082 -0.3972442 0.28185186 -0.098450184 -0.0168098

l2.weight f4 [300, 400]
00000000: 3d03 d03d 2b95 82bd bc5e 99bc 8180 b7bb
00000010: 92b4 47bd a245 9e3c 2aa6 c33c 47aa 523d
00000020: 9df8 a53d 849e 883b 046b da3c 9e37 673d
00000030: 3716 473d dce0 583d 3298 ed3b 82a2 9bbc
00000040: 73e7 49bd 600a c3ba 2804 f6bc 25d0 aabd
00000050: f78d d33d edbe 0bbd 7543 c03c 36a8 9b3c
00000060: 1351 efbb 50b8 b7bc 8adb fdbc 96cc 0ebc
00000070: 25ff e83c e9a4 24bc 257f 3dbd 474b 0f3d
00000080: 3976 933c a186 023d d8f6 61bc 7106 1a3d
00000090: e0bd 403d 74f9 f7bd 6456 81bc e698 a4bd
000000a0: d2c4 41ba 93ea a4bc b4e2 06be 9730 2e3d
000000b0: 6c3b d0bc ac25 4abd c35e ca3c 6ff9 013d
000000c0: f9c0 2b3d f71a afbc c310 bb3c 5f74 bbbd
000000d0: c641 343d 41cb 083d 388a fe3d 096e 7abd
000000e0: a69a 09bd 8d75 f53c 5b51 3d3d 9ed5 683c
000000f0: afae 0ebe 0095 21bb eeff 4cbc a47f 893c
00000100: 24ad 01bd 145b 8cbd 9ea8 5bbd 4c16 683d
00000110: 001d d73c fa13 8dbc 4ea8 cabd 2dc8 ab3c
00000120: 3443 bbbc d09b 2f3d f7de 10bd d0c0 e7bc
00000130: 8428 ed3d d3b1 053d be86 9dbc a817 013c
00000140: ad3a c3bc 6520 45bb 8ff6 a1bc 51e0 2a3c
00000150: a742 e63c 7b63 d13c cf84 2dbd 2b0e ebbc
00000160: 93c3 993c c902 113e dbce b73c f30c 25bc
00000170: e26f 09bd e685 7ebd 1d62 9fbc 68af 1abd
00000180: 7f75 7bbc 0e7a 0abd 3404 24be 4cbd ddbc
00000190: 4b7a febc 938d 153d ae74 69bc ea88 11bd
000001a0: 0334 9dbd d632 d83c 5b5f 37bd 6e14 73be
000001b0: 618e 39be 7dea 1ebe 8c61 e9bc 061b ab3c
000001c0: f13d f3bc 39db 7bbc 6a3c 8a3c 7922 203d
000001d0: e8cf 5a3d 407e 90bb 2e20 babd 75f9 bd3c
000001e0: 8e9d ae3c f877 2cbc 79ab c53d dbd4 873c
000001f0: 9287 20bd e59f 2ebc d17a f13b 61bb 1b3c
00000200: 7d74 a53b b6fd cc3c 9832 afbd d7e6 2dbd
00000210: 2d2d 35bd 6fa4 3e3d 8d92 553d c661 e2bd
00000220: 92e6 59bd 70db bd3c 168e 76bb 802f 683d
00000230: 21a2 f5ba 9eea 92bd 3514 193d 61bf 1abd
00000240: 8fc5 49bd 32b0 343d 6097 243d 70a5 11bd
00000250: 926f f73c 341a 55bd 1784 5e3d d23e ddbc
00000260: cf07 243e 8788 fbbb a285 3ebd 50bd 4d3b
00000270: 13f3 13bd 9c1f 4a3b c050 26bd fafc a93c
00000280: 0402 94bd 03d3 8e3c dca2 18bd 5f9d ae3d
00000290: 0af7 02bc 9714 e03c 3fae 1a3d 80ef cb3d
000002a0: 8d46 4fbd 4e5c 13bd 8f82 913c ff81 373d
000002b0: d0b2 abbd e7a8 eebc 1e7b dd3c 7019 7e3d
000002c0: 367c 56bc a7c5 babb a84c 6ebb 87e3 babc
000002d0: c20d 013e 500d af3b cd00 e9bc 76ac 3f3e
000002e0: 8c32 0fbc f4d9 db3c fb85 07bc 5139 3b3d
000002f0: ee44 963c 5e77 0f3d 925d 083d 6edb f43c
00000300: 859e f5bb 5341 d03c d705 163c 5ae2 3e3b
00000310: 7aee 1bbd 289c 083d 3407 083e 1576 e73c
00000320: e22a 163d 65de 323d cce5 2fbc 8c09 b1bd
00000330: 15c1 7b3c ed53 3b3d ef25 00bd 45c0 7b3d
00000340: 291d a1bc 0349 613c 602b 77bb cd82 513e
00000350: 93e1 293c a070 2ebd 715b 95bd 50b9 853d
00000360: f84b 42bd 60ee a2bc 389d 3c3d 9df0 a6bd
00000370: 25f1 dfbc 5ffc 8bbd 4a5b a93b 3ddb b5bb
00000380: 67ff be3c dbd5 813b ed2c 563c 5f9e b2bd
00000390: 7afa 2abd b581 4ebd b0cb 193e b239 cf3d
000003a0: 5d9b 083d 0c3c fa3c 670e 9dbd f61c 373d
000003b0: fdc8 f9bc f049 8c3b 647f 0bbd 96bb 94bd
000003c0: d51d 7d3d 08d5 8a3d 0922 98bd 54c8 03bc
000003d0: 446a 1b3e 0768 b4bd 4deb d13c 8d68 8e3c
000003e0: 65db 833d 2718 c5bc 6cc1 9cbd 21af 44bd
000003f0: 1de1 563c 153f 9ebe 624b 5fbd 685b 15bd
0.10156868 -0.06376108 -0.01872193 -0.0056000357 -0.04875619 0.019320313 0.023882944 0.05143192
0.0810406 0.004169287 0.026662357 0.056449525 0.04860517 0.052948818 0.007250809 -0.018998388
-0.049292993 -0.0014880411 -0.030031279 -0.08340482 0.10329812 -0.034117628 0.023469666 0.019001108
-0.007303366 -0.022426754 -0.030988473 -0.008715769 0.028441975 -0.010049083 -0.046263833 0.0349839
0.018000709 0.031866673 -0.013791762 0.0376038 0.04705608 -0.12108126 -0.015788265 -0.080369756
-0.0007391694 -0.020131385 -0.13172418 0.042526808 -0.02541896 -0.049352333 0.024703389 0.03173202
0.04193208 -0.021375163 0.022835141 -0.091530554 0.04400804 0.033396963 0.12428707 -0.061140094
-0.03359475 0.02996328 0.046220165 0.014211087 -0.13933824 -0.0024655461 -0.01251219 0.016784497
-0.03165926 -0.06853309 -0.053627603 0.05666189 0.026258945 -0.01722144 -0.09895383 0.020969475
-0.022859193 0.042873204 -0.035368886 -0.028290182 0.11579993 0.03264029 -0.01922929 0.007879175
-0.02383169 -0.0030079123 -0.019770889 0.010429458 0.028107954 0.025560131 -0.042362984 -0.02869328
0.018770015 0.14161219 0.022437504 -0.010073888 -0.033553965 -0.062139414 -0.019455964 -0.037764937
-0.0153478375 -0.033807807 -0.16017228 -0.027067803 -0.031064173 0.03651197 -0.01424901 -0.035530962
-0.07675936 0.026391428 -0.044768672 -0.23738262 -0.1812072 -0.15519138 -0.028488897 0.02088691
-0.029692622 -0.015372091 0.01687451 0.039095376 0.05342093 -0.0044095814 -0.09088169 0.02319024
0.021315362 -0.01052665 0.096518464 0.01658099 -0.03919179 -0.010658239 0.007369377 0.009505124
0.005049287 0.025023323 -0.08554572 -0.042456474 -0.044232536 0.046543535 0.052141715 -0.11053805
-0.053198405 0.023175925 -0.003762131 0.056685925 -0.0018740335 -0.07173656 0.037372787 -0.03778017
-0.049260672 0.044113345 0.040183425 -0.035558164 0.030204568 -0.052026942 0.05432519 -0.027007494
0.16018604 -0.0076761874 -0.04651416 0.0031393357 -0.036120486 0.0030841595 -0.040604353 0.020750511
-0.07226947 0.017434603 -0.03726469 0.0852611 -0.007993469 0.027353568 0.03776383 0.099577904
-0.05060439 -0.0359767 0.01776245 0.04480171 -0.08383715 -0.029133273 0.027036246 0.062035978
-0.013091138 -0.0056998315 -0.0036361609 -0.022813572 0.12602904 0.005342163 -0.028442765 0.18718132
-0.008740079 0.026837327 -0.0082716895 0.045708958 0.018343415 0.035025947 0.03329236 0.029889788
-0.0074957036 0.025421774 0.009156666 0.0029126615 -0.038069226 0.033352047 0.13283998 0.028254548
0.03666199 0.043669123 -0.01073594 -0.08644399 0.015365859 0.045734335 -0.031286176 0.06146266
-0.019667225 0.0137503175 -0.0037715062 0.20460053 0.0103687225 -0.042587876 -0.07292832 0.06529486
-0.04743573 -0.019889057 0.046048373 -0.08151362 -0.027336666 -0.06835245 0.005168353 -0.005549817
0.023315145 0.003962261 0.013072235 -0.08721613 -0.04174278 -0.050416667 0.15019107 0.101184264
0.03335129 0.03054621 -0.07668763 0.044705354 -0.030491346 0.004281275 -0.034057036 -0.07262342
0.06179603 0.06778914 -0.07428367 -0.008043367 0.15177256 -0.08808904 0.025624895 0.017383838
0.064383306 -0.024059368 -0.0765408 -0.04801858 0.013115195 -0.30907503 -0.05451525 -0.036464125

l2.bias f4 [300]
00000000: 37b6 cd3c bda6 47bd e315 263d 56c1 22bd
00000010: f93e e1bb 3105 2e3d 6838 30bc 9cc1 ed3c
00000020: e820 babc e2ee c6bc 1f68 773c 9a2f 1439
00000030: b707 a9bc bab6 4e3c e5d9 8fbc bcba 85bc
00000040: 1e90 c6bb 8fdc 5eb9 ddcf f3bc 8139 d23c
00000050: 9ebe 833c 967b fd3c 3ecd b43c ccc0 2d3d
00000060: c85c bb3c 1788 13bc bff2 cbbc 7adf 48bd
00000070: d4e8 4ebd 8608 ff3b 9351 c5bc 4deb db3c
00000080: 611d dcbc 07c0 f63c f519 3b3c ee98 c4bb
00000090: 0dbc 293d b14d 133d 0c20 46bd fcd4 0fbd
000000a0: 7424 42bd 2795 47bd 6a24 89bb 7917 7dbc
000000b0: bafb 333c a109 043d bb77 a13c fc69 fb3b
000000c0: 6869 68bc f41f 41bc 55ce 083c f022 2ebd
000000d0: e559 e13b 6d06 20bd bba7 2cbd e486 7abd
000000e0: 6a25 3bbd fdf9 fcbb f5f5 0d3d d7b0 113d
000000f0: 6898 7bbc b50e 3fbd 6dc2 d1bc 7df7 fd3b
00000100: 5d05 2e3d 0d72 8f3c d091 c73b ce74 f3bc
00000110: 93ca 193d e15e 453b 94d1 ba3b d0ec 81bc
00000120: aa3d 953c 6fbb 4fbc 799d 26bd 065f 1d3c
00000130: c01e aabb 10b1 1a3d 1c12 51bd 81c3 db3c
00000140: 0616 383c 49c4 4fbd 1fcf a9bb 7005 44bd
00000150: 726b 503c 4b71 f63c 5e07 853c 55af 873c
00000160: c26d 213d d486 5dbd c1a5 0d3d e108 233d
00000170: 94b6 093d 16f3 5fbd 8016 bfbb 41c7 343d
00000180: b50e 653c 99ff 04bd 90bc cf3b 3188 e6bb
00000190: b954 c9bc d48d 94bc e984 c5bb 78ff 94bc
000001a0: b90c c53b 29f2 d7bc 8ef6 d2b8 74c0 b23c
000001b0: 3cbc 75bc 26e9 5fbc 86f2 143d 4a09 233d
000001c0: ebbd 733c 4431 fb3c 4fcc 0cbd 38b0 153d
000001d0: 7dfc 0bbd b4ce 0d3d 5327 f53c 347f 7dbd
000001e0: 6eea 81bc a24c b4bc 9956 083d 96fb 13bd
000001f0: 0f7e 62bd 248d 81bc e032 d63c efa5 6ebd
00000200: 3459 84bd c9b8 303d bac1 40bd 2f3b 8cbb
00000210: 4d55 2dbd aaf6 71bd 42d0 60bc 86fc 3ebd
00000220: 457d 213d b850 033d 1dce 733c 1312 ef3b
00000230: 3316 49bd 69d5 4dbc f8e4 2d3c 3bb0 dabc
00000240: ee26 85bc c6f2 153d 43f2 42bb fd7e 23bb
00000250: 97cf b1bc 0ea2 17bb fcd0 cdbc 2c8f 093c
00000260: d437 40bd ae5a 13bd 6085 853c cc3f 0ebd
00000270: 2a23 a1bc b667 50bd df44 2e3d 4aa2 b6bc
00000280: b370 073d a322 a33c 11ec 18bd 5337 9f3c
00000290: 8306 17bc 71af 0cbd 3e99 823c 6c66 fbbc
000002a0: f77d 75bd db2f 213d 597a 463c 1e99 a8bc
000002b0: c822 c8bc 46cb 18bd 923e 4dbd e78c ce3c
000002c0: d1b8 9e3c e93f 453b e0e2 4cbd 2aea d93c
000002d0: 6b66 93bc 100f 12bd 6cf3 49bd 7784 9bbc
000002e0: fe14 ea3b d7b0 c9bb 8a19 0d3d b5f5 3f3b
000002f0: 039f 723c 3968 663c 731c 89bc fe40 383d
00000300: 49e9 f93c 0d38 cbbc f88c 963c f4dc b53c
00000310: 217a 7f3c 9b77 b0bc 602c 5a3b 8f37 3c3d
00000320: 66d6 8e3c e0f0 a8bc 6c58 8c3b b6d7 13bd
00000330: 8621 d23c c953 233c ac26 23bd 4123 493c
00000340: 65e0 ea3c ed9e e6bc 86b6 fc3c 4002 99bc
00000350: cfe1 81bc ae2f 493d 1072 1fbd 9e53 09bc
00000360: fed8 e53c 4748 05bd e50f 41bd 9b04 02bd
00000370: a864 4f3c 354b 133c 4af8 68bc 1ff7 683c
00000380: 63ce 3fbc 810d 063d e472 f9bc 7788 4b3d
00000390: 9b7d a73c f4d5 153d 0b84 eb3c 4c28 873c
000003a0: d45f 2b3d 075d cfbb c43d acbc db7a 543d
000003b0: 11f5 943c b2dd 2b3d 136b 4a3b cee5 15bc
000003c0: 904f 10bd 3349 babc 3344 283d 657d 5b3c
000003d0: ee8c 353d 6e43 3a3c e2ce e3bc 2001 403d
000003e0: fed8 cb3c 34f3 743c 532b 983c c940 c73a
000003f0: 5534 82bd 4caf 2cbd 2b97 23bd e09a 29bd
0.0251113 -0.048743 0.040548217 -0.03973516 -0.006873962 0.04248542 -0.010755636 0.029022984
-0.022720769 -0.02428383 0.015100508 0.00014132113 -0.020633562 0.012616808 -0.017559955 -0.016324393
-0.0060596606 -0.00021253734 -0.029762203 0.025662186 0.016082104 0.03094272 0.022070523 0.042420194
0.02287139 -0.009004614 -0.024896024 -0.04904125 -0.05051501 0.0077829985 -0.02408675 0.026845599
-0.026869478 0.030120863 0.011419763 -0.005999676 0.041439105 0.035962764 -0.048370406 -0.035115227
-0.047398046 -0.048726227 -0.004185249 -0.015447491 0.010985309 0.032235745 0.019710412 0.0076725464
-0.014185287 -0.011787403 0.008349975 -0.042513788 0.0068771713 -0.039068628 -0.042152148 -0.061163798
-0.045689978 -0.0077202306 0.03465839 0.03556904 -0.015356161 -0.046644885 -0.025605405 0.00775045
0.042485584 0.017510438 0.0060903803 -0.029718783 0.037546705 0.0030116367 0.005701253 -0.015859991
0.01821788 -0.012678965 -0.04067752 0.009605175 -0.005191654 0.037766516 -0.05104266 0.026826622
0.01123572 -0.0507243 -0.0051821615 -0.047856748 0.012720929 0.03008332 0.016238865 0.016563097
0.039411314 -0.05408366 0.034581903 0.03980339 0.033621386 -0.054675184 -0.0058315396 0.044135336
0.013980557 -0.03247032 0.006339617 -0.0070352782 -0.024576532 -0.018134035 -0.006027807 -0.018188223
0.0060134795 -0.026360588 -0.00010059505 0.021820284 -0.014998492 -0.013666427 0.0363641 0.03980378
0.014876823 0.03066314 -0.03437453 0.03654501 -0.03417634 0.034620956 0.029925978 -0.06188889
-0.015858855 -0.022009198 0.03328571 -0.036128603 -0.055296 -0.015814371 0.026147306 -0.058263715
-0.06462327 0.043144975 -0.047059752 -0.004279516 -0.042317677 -0.059073128 -0.0137215275 -0.046627544
0.039426107 0.0320594 0.014880684 0.007295856 -0.049093436 -0.012563088 0.010613672 -0.026695361
-0.016253915 0.03660848 -0.002974645 -0.0024947517 -0.021705432 -0.0023137364 -0.025124066 0.008395951
-0.04692824 -0.03597515 0.01629895 -0.03472881 -0.019670088 -0.050880156 0.04254615 -0.022294182
0.033066463 0.019913977 -0.037334505 0.01943556 -0.009217861 -0.034347 0.015942212 -0.030688487
-0.059934583 0.03935228 0.012114131 -0.020580824 -0.024430647 -0.03730323 -0.0501085 0.025213672
0.019375237 0.0030097908 -0.050021052 0.026600916 -0.017993173 -0.035658896 -0.04930441 -0.018984063
0.0071436157 -0.006155114 0.034448184 0.002929074 0.014808419 0.014062935 -0.016737198 0.044983856
0.030506747 -0.024807 0.018377766 0.022200085 0.015593083 -0.021541407 0.003329061 0.045951422
0.017436218 -0.02062267 0.0042830016 -0.03609439 0.02565075 0.009968706 -0.039831802 0.012276472
0.028671453 -0.028151954 0.030848753 -0.01867783 -0.015854744 0.049117737 -0.038927138 -0.008381752
0.028057572 -0.032539632 -0.0471343 -0.031742673 0.012658276 0.008990099 -0.014219353 0.0142190745
-0.011706921 0.032727722 -0.030450292 0.04969069 0.020445636 0.036580995 0.028749486 0.016498707
0.041839436 -0.0063282284 -0.021025546 0.051874977 0.018183263 0.041959472 0.0030886575 -0.009149028
-0.035232127 -0.022739982 0.041080665 0.013396596 0.044323854 0.011368616 -0.02780861 0.046876073
0.024883743 0.014950562 0.018575346 0.0015201803 -0.06357638 -0.042159364 -0.039939087 -0.041407466

l3.weight f4 [1, 300]
00000000: d795 f83d d7ed ffb9 0b8e 82b9 eff5 82bc
00000010: cc67 6e3d 113c 813d 92ab 6f39 02ae 053d
00000020: e59f f93b f8c8 943d dbd6 29bc 5a34 77bc
00000030: cec4 24bd 9717 15bd 00b0 f8bc 6551 4bbc
00000040: b4a4 b03c 5234 d8bc 3a23 bc3c a7ac 333d
00000050: 92f7 fc3a 2d77 beba fdcb c4bc 7b2e 6cba
00000060: c688 403c 0847 593b 701b 0eba f8f6 233b
00000070: 0c20 3c3d 329c c3bc 9802 733c fa07 9539
00000080: c3ea 9ebb f05a 34bc 3c20 fabc 8376 913b
00000090: ea89 2d3d 694f 263d 7b75 1ebd 2910 ff3c
000000a0: 05ae 563a 8b13 fabb 45d5 87bb a809 8c3d
000000b0: d1af 78bb 9b69 6a3b f7c0 22bc 6179 ca3d
000000c0: 94f1 363d fe67 913d 25cf d43d aa8e f13b
000000d0: 4dac a83c a4bb d4bc 9a63 86bb 24ba cd3c
000000e0: cd8e 38bd cd7c bf3b 0500 483d fd35 8e3c
000000f0: 89d9 2dbd e4c8 6cbb e84d 0fbd 4b30 073e
00000100: f287 9c3a 006e d4bc c682 d4bc 0810 9b3a
00000110: 7d45 413d b31d b73c cebc b6bb 5ff4 f5bb
00000120: 57be 833c 583a 2eba f021 ffbb 6726 f03d
00000130: e67a 1e3c 784d 8d3c 7beb 793c 78bc 36bd
00000140: 37c1 953d 9c0e 83bb e4f3 9eba c292 55bd
00000150: 2e59 683a 5ae7 163b e0d4 e33a d3b0 13bd
00000160: 459c 013d db76 853b f3ad f2bc 4607 d2ba
00000170: 4aeb c5bc 9340 2dbd cf16 523d e0c6 8fbc
00000180: df90 db3c 2232 86bb 2a84 16bd de48 58bb
00000190: e4d9 003e 2cd3 0d3d 6258 adbb 8a93 04bd
000001a0: d5b3 b4bc e4f0 a23c 25d7 0e3d fca6 343b
000001b0: bc1e 573d 890c 483c a4c1 90bc 0ae5 353d
000001c0: dce9 e23d 9b15 503c 0f34 26bd da34 51bd
000001d0: 000e f8bc 326c af3c 6796 5e3c 4be4 fa3d
000001e0: 6d6a 703d 41b1 173c 5e97 0c3e 860b 173c
000001f0: 49a1 533d 2738 41bd 942e 5dbc 9c51 b23d
00000200: be91 183d 9a67 9e3c 6e15 41bd 4395 bbbb
00000210: 3b59 113d e21d 88bb 5ee0 d43d 4d5b c43d
00000220: 1737 13bc a056 63bd c190 893c 39a7 9f3b
00000230: c898 f13c 2d2c e73b b4ec 693d 908c 0d3e
00000240: 4d9a 503d 037c 56bb b2a5 c5bc 60c0 163d
00000250: f74f ca3c 8582 863d f997 2cbd 6e6a 9abc
00000260: c56d a33a 22cc ad3d 8498 563d 868f b9ba
00000270: 08c2 20bd 36d9 b8ba ec99 28bc 9b3d bd3d
00000280: e0a7 ac3b 6c38 3bbd 9aee e6bb 46c6 e6bc
00000290: 8edd 623e f52e ce3d cd32 7f3c 1f4a 03bd
000002a0: e3c5 bebc 3fa8 083d 5790 2f3d 04bb c638
000002b0: 2e39 52bc e030 13bd 1bf6 33bc 9545 15bd
000002c0: d51b 3abc d63c 433c e82b 293e 6db9 7fbc
000002d0: 0b51 653d 5b31 5ebc 1f0a 89bb 9892 ffbb
000002e0: 1c8e c6bc 3203 073d 9a66 033d a178 bebc
000002f0: 7675 853b 93d0 883c 6dbc 063d a30a 533b
00000300: 8973 d63c 559d 4a3d 366c 7fba 5c46 edba
00000310: 1f60 f0bb 536f 983d 2a68 283d 6ce0 febc
00000320: ed6e 113b 671f 2dbc 82fe c33c b2ca c63c
00000330: 02f8 dbba d70d e4bb 06f3 23bc 8f40 cd39
00000340: bfe3 bd3c 8eba b43b c818 363d 7f5f 5fbd
00000350: 016c 9c3b fbef 31bc f3a3 db3c 9c21 c2bb
00000360: 6ea1 8fba 560f db3c 8081 0e3a 5b7d 8c3c
00000370: bc1f fcba f72c 9ebc 6d50 f63c 6317 4dbc
00000380: d74a a9bc 3db8 06bb 3edb 83bc e5e4 a1bc
00000390: 3f6b 76bc ab6e ce3b 539e edba 565a edbc
000003a0: 3394 b9bb 0bca 573b ffc0 e8bb 798b 11bd
000003b0: 4bf5 e4bc 9153 e5bc 8830 97bc b6de c23b
000003c0: c995 293e 4ca8 99bc 1ff0 393d 1e45 b13a
000003d0: d304 3fbc 0d29 e3bc 3e32 d13b 4896 71bc
000003e0: 900d 803c ef11 a73b 65c0 79bc bdb0 373b
000003f0: 2420 c3bc 1662 05bd f39b c83c f6de 42bd
0.12137955 -0.00048814595 -0.00024901362 -0.01598641 0.058204457 0.06310285 0.00022856731 0.03263665
0.007617938 0.07264894 -0.010366167 -0.015088165 -0.04022675 -0.03639945 -0.03035736 -0.012409543
0.021562912 -0.026392136 0.022966016 0.043865826 0.0019299856 -0.0014531367 -0.02402305 -0.00090096117
0.011751359 0.003315391 -0.00054209586 0.002501903 0.045929 -0.02387819 0.014832161 0.00028425438
-0.004849763 -0.011008009 -0.030532949 0.0044391765 0.042367853 0.040603075 -0.038686257 0.031135635
0.0008189383 -0.0076317242 -0.0041452968 0.06837779 -0.0037946592 0.0035768512 -0.009933702 0.098864324
0.04466398 0.07099913 0.10391072 0.007371743 0.020589972 -0.02596838 -0.004101229 0.025113173
-0.04505806 0.005843735 0.048828144 0.017359728 -0.042443786 -0.0036130482 -0.034986407 0.13202016
0.001194237 -0.025931358 -0.025941264 0.0011830339 0.04718541 0.022353029 -0.0055767065 -0.007505938
0.016081972 -0.0006646267 -0.007786028 0.11726075 0.009672856 0.017248854 0.015253897 -0.04461333
0.073122434 -0.0039995443 -0.0012127128 -0.052141912 0.00088633865 0.002302608 0.0017382167 -0.036057305
0.03164317 0.0040730066 -0.029623961 -0.0016023896 -0.024160046 -0.04229791 0.051291283 -0.017550886
0.026802478 -0.0040953318 -0.036747135 -0.0033002417 0.12583119 0.034625217 -0.005290077 -0.032367267
-0.022058407 0.019890256 0.034873147 0.002756535 0.052519545 0.01221002 -0.01767046 0.04440788
0.110797614 0.012700464 -0.04057699 -0.051075794 -0.030280113 0.021413896 0.013585663 0.12250575
0.058695246 0.009258569 0.13729617 0.009219056 0.051667485 -0.04717269 -0.013499875 0.08706972
0.037248366 0.01933651 -0.047139578 -0.0057245805 0.035485487 -0.004153953 0.10394357 0.09587727
-0.008985302 -0.055502534 0.016792657 0.0048722294 0.029491797 0.0070548267 0.057110503 0.13823152
0.050928403 -0.0032727725 -0.024126861 0.036804557 0.024696333 0.065678634 -0.04213712 -0.018849578
0.0012468627 0.08486201 0.052391544 -0.0014157153 -0.039247543 -0.001410282 -0.010290604 0.09240266
0.0052690357 -0.045708105 -0.0070474865 -0.028170716 0.22154829 0.1006755 0.015576077 -0.03205311
-0.02328772 0.033363577 0.042862263 9.47621e-05 -0.0128310155 -0.035935283 -0.010983969 -0.03644331
-0.011359175 0.01191636 0.16520655 -0.015608174 0.05598549 -0.013561572 -0.0041821147 -0.0077994578
-0.024237685 0.03296203 0.03208027 -0.02325088 0.0040728403 0.016701018 0.03289454 0.0032202385
0.026178138 0.04946645 -0.0009743603 -0.0018102634 -0.0073356773 0.074431084 0.041114964 -0.031112872
0.002219136 -0.010566569 0.02392507 0.024266575 -0.0016782286 -0.0069596577 -0.010006672 0.00039148747
0.023179887 0.005515403 0.044457227 -0.05453443 0.0047736173 -0.010860438 0.026811576 -0.0059244167
-0.0010958144 0.026740711 0.0005436167 0.017149618 -0.0019235532 -0.01930855 0.030067647 -0.012517783
-0.02066557 -0.0020556592 -0.016095754 -0.019762466 -0.015040218 0.0062998137 -0.0018128849 -0.02897374
-0.0056634187 0.0032926823 -0.007103085 -0.035533402 -0.027948996 -0.02799395 -0.018455759 0.0059469594
0.16561045 -0.018757008 0.045395013 0.0013524627 -0.011658865 -0.027729535 0.006384163 -0.0147453025
0.015631467 0.0050985734 -0.015243624 0.0028028928 -0.023819037 -0.032564245 0.024488425 -0.047575913

l4.weight f4 [400, 6]
00000000: ea07 b23d e73c 80bd 6105 86bc 77bf b1be
00000010: e360 a23e c67e b13e d2cc 98be 23d2 8ebd
00000020: 74ca f9bc 7241 053d d399 d2bd 8993 05be
00000030: 6e62 6cbe 683d bcbd 68e2 06be 1bb0 5f3e
00000040: 5d95 333e 2670 be3e cc3a 2bbe b98f 893e
00000050: d0a3 8d3e 3c67 99be cf52 803e e8ff a6be
00000060: e44f 83bd c1d7 ab3e f1a5 943e d923 523e
00000070: 801b aebe 7834 92bd 4f5f 383d 8e4f 13be
00000080: 0524 55bd 8942 7fbe 5c03 c8be cade 013e
00000090: 1b1c a53e cbd0 93be 6ad9 ea3e 708b 5cbe
000000a0: b669 b03d 7646 29be 3eeb 3ebd aa66 0fbb
000000b0: f5bc 6b3a 049a edbe f75c 10bd 83ba 84be
000000c0: 48f5 e1bd 43f7 28be 4c3a c5bd 8156 2a3d
000000d0: 9d71 703e 4b56 c3be 28a8 b43e 3743 6e3b
000000e0: 469f 2ebe 8b1d c03d 13ba a6bc a342 903c
000000f0: 11a6 4fbd 825b aabe e929 a1be e880 0d3e
00000100: 6b31 afbe 9d04 993e bd50 4d3e c3f6 8f3e
00000110: f359 953e 1f70 b23d d52b e6bc fd5a 96be
00000120: 4922 5c3e bd87 0f3e 1d72 80be 0629 c0be
00000130: 54e7 a8be c11b bebe ff72 6e3e c36e fb3d
00000140: 0fab 49be cabe b4bd 3e86 a13e b000 e3bc
00000150: ee8d 863e ae90 b0bc e7ee 2e3e 6d8f 873c
00000160: 9729 3c3e a877 a4bc 0a4f 02bd 26e3 463e
00000170: 84c9 633e 8ac7 a13e 03a1 bebe f95d b2be
00000180: 827e a73e 4d9f 3c3e af0d 97bd 52c4 4e3e
00000190: 1189 4bbe aeab 83be 30bc bfbe 0e65 003d
000001a0: 1ae5 783d 901e e33e 0f86 8dbc 13dd d5bd
000001b0: 03a9 2d3e a378 59be 19f1 29be e0e5 583e
000001c0: 0f73 92be 9a1e 01be c1ba 47be 1f54 973e
000001d0: 8d86 eb3c 931f b1bd e5a5 02bd 0e50 8a3e
000001e0: b889 ae3e 3d99 f33d 0844 1c3f db76 ad3e
000001f0: f285 b7bd 5572 c8bd 1402 77be 620e 9cbe
00000200: 2a10 9a3e 4641 e1bb dff5 9c3c 7d3f a63c
00000210: fe3e 323e e445 853c 7800 133e 0b03 2abf
00000220: c6a9 da3c b2b3 0a3d 21c5 bf3d ee35 babd
00000230: 5124 efbe ffad 8fbe 1719 42be 83a8 68be
00000240: ae24 21be faef 27be fb6b 66be dc9a 9c3e
00000250: 10ee 92be d396 20bc 6ca6 2bbc 1de7 e3bd
00000260: 908a 6bbe 1521 c7be ee87 75be 1ff6 883e
00000270: af18 a03e a88b ee3d dff6 a73d 8ff1 4fbd
00000280: 7022 d73a e986 443d 2bbd 173d ec9c ef3e
00000290: 5975 a23e 063a 133f fb2e 61be 5a61 ad3c
000002a0: 86e4 54be f3d5 073e b96e b7bc 5afd f73e
000002b0: 67a0 a6be be0e 8e3e ce3d 9b3e 1619 4abe
000002c0: 31e3 313e 428a fcbd e0bf d53d 44cc abbe
000002d0: 6987 36be ea34 2d3e 38cd 113e 0c4e 28bc
000002e0: 8c6b 14be d745 a5be 2339 9d3e 5ab5 7fbe
000002f0: eb35 c03e 25fc 0abf ab3b 84bc 3414 5a3e
00000300: 0169 0ebe 2cd0 46be 4539 0abe 9d69 bdbd
00000310: 891d d1be 6c3c 8f3e 4b72 8b3e bbda 8cbd
00000320: 0d3c bdbd ef49 3fbe 4d7f 9f3e 1ad6 1c3e
00000330: a83d be3e 8dc5 9dbe 6250 ba3d 1428 213e
00000340: 550a aabe 5970 943d 0ae6 8e3d f559 4dbe
00000350: c756 f83d 5cab ddbd 244d 8a3e 6def 5e3e
00000360: 0738 a03e 8528 a8be 84b6 9dbd a9a8 dfbe
00000370: 6b77 b5bd db74 9bbc b72f 903e 4622 f83d
00000380: 0b9e 18be 783d c9be 41b4 353e 2d4a aebe
00000390: 2202 45bc eaa0 c43e d44b 6ebe 2634 c13d
000003a0: c46e c03e 4a75 8fbe 6047 b33c a0fa 9f3d
000003b0: 90f2 1a3e 849c a83e 1194 2ebe 5069 09be
000003c0: 58b2 89bb 8f86 96be 0707 673e 90c6 bebd
000003d0: 0e17 09be 16ce d5bd e804 2f3e f3b9 80bc
000003e0: 2b44 bdbe e8e3 e8be 66ac d5bc 2915 183e
000003f0: 6055 84be b09b a7be 333c 3b3e e219 7fbe
0.08692916 -0.06261616 -0.016359987 -0.3471639 0.31714544 0.34667033 -0.29843765 -0.06973674
-0.030492045 0.032533117 -0.10283246 -0.13044561 -0.23084423 -0.091914 -0.13172305 0.21844523
0.17537446 0.37194937 -0.16721648 0.26867464 0.27664042 -0.29961574 0.25063178 -0.32617116
-0.06411722 0.33563045 0.29032853 0.20521487 -0.34005356 -0.07138914 0.04501277 -0.14385816
-0.052036304 -0.24927725 -0.39065063 0.12682644 0.32248005 -0.28870234 0.45869 -0.21537566
0.08613913 -0.16530785 -0.046611063 -0.002188126 0.00089926954 -0.46406567 -0.03524491 -0.25923547
-0.11033112 -0.16500573 -0.0963026 0.041586403 0.2348084 -0.38151774 0.35284543 0.003635598
-0.17052945 0.09380635 -0.020352399 0.0176099 -0.050695483 -0.3327294 -0.31477287 0.13818705
-0.3421739 0.29886332 0.2005033 0.28117952 0.29170188 0.08712792 -0.028097073 -0.29366294
0.21497454 0.14016624 -0.25087062 -0.37531298 -0.3298899 -0.3713055 0.23286055 0.122769855
-0.1969416 -0.088254526 0.3154773 -0.027710289 0.2628016 -0.021553364 0.17083322 0.016547883
0.1837524 -0.020076588 -0.03181366 0.19422588 0.22244841 0.3159755 -0.37232217 -0.3483732
0.32713705 0.18420143 -0.07375657 0.20192078 -0.19876505 -0.2571692 -0.37448263 0.031346373
0.060765363 0.44359255 -0.017275838 -0.10442557 0.16959004 -0.21237426 -0.16595878 0.2118144
-0.28603408 -0.1260933 -0.19504835 0.29556367 0.028750682 -0.086486004 -0.03189649 0.27014202
0.34089446 0.11894462 0.6104131 0.33879742 -0.08961095 -0.09787432 -0.24121886 -0.30479723
0.30090457 -0.0068742363 0.01916021 0.020293945 0.17406842 0.016268678 0.14355648 -0.66410893
0.026692282 0.033862777 0.09363771 -0.090923175 -0.46707395 -0.28062436 -0.18954884 -0.22720532
-0.15736648 -0.16400138 -0.22502129 0.30586898 -0.28697252 -0.009801584 -0.01047669 -0.11128066
-0.23002076 -0.38892427 -0.23977634 0.26750275 0.31268832 0.11647731 0.08201384 -0.050767478
0.0016413461 0.047980223 0.03704564 0.4679941 0.31730154 0.5751041 -0.21990578 0.021164585
-0.207903 0.13265209 -0.022391664 0.4843548 -0.32544252 0.27745622 0.3032059 -0.19736132
0.17371823 -0.12331058 0.10436988 -0.3355428 -0.17825092 0.16914716 0.14238441 -0.010272514
-0.14494151 -0.32279846 0.30707654 -0.24971524 0.37541136 -0.5429099 -0.016141733 0.2129677
-0.13907243 -0.19415349 -0.13498409 -0.0924866 -0.40842846 0.27975786 0.27235636 -0.06877657
-0.092399694 -0.18680547 0.3115181 0.15316048 0.37156415 -0.30814782 0.09097363 0.15737945
-0.33211008 0.07247991 0.0697747 -0.20053847 0.121259265 -0.108237 0.2701198 0.21771021
0.31292745 -0.32843414 -0.07700828 -0.43683365 -0.08860668 -0.01897662 0.28161404 0.12115912
-0.14904039 -0.3930471 0.17744543 -0.34040967 -0.012024434 0.38404018 -0.23271114 0.09433775
0.37584507 -0.28019172 0.02188462 0.07811475 0.15131593 0.32931912 -0.1704867 -0.1341908
-0.0042021684 -0.29399535 0.22561274 -0.093152165 -0.13387701 -0.104396984 0.17091715 -0.015713667
-0.3696607 -0.4548638 -0.026083183 0.14851822 -0.25846386 -0.32735968 0.18284683 -0.24912217

l4.bias f4 [400]
00000000: 2f4b eabd 4e8a 0c3c e20d 953e 460e 44be
00000010: a030 67be 05be a83d 93c3 2f3d cb75 973e
00000020: e397 ae3d 1e24 1abe e7b8 9d3e 684e afbe
00000030: 290f a3be 1c4c c5bd edae 24bd ac06 883b
00000040: 0526 273e 4a15 8a3e c6b4 c13e 90f4 e2bd
00000050: 3f03 25be 7ee3 723e 0964 f6bd 94ca 37be
00000060: e80f c8be 8065 9c3e fbb0 613e 4743 c2be
00000070: 54c0 743e bd09 9a3e 846e c23d 1efb a63c
00000080: 49a4 06bd de88 6d3d c043 9f3e d6b6 8f3e
00000090: 61d1 b83e 22c0 943e be26 33be 3542 c6be
000000a0: 0f92 54be ae08 1fbd 918d c83e 88e3 ef3c
000000b0: d971 9ebe e048 113e 6c0d a1be 7be6 8fbe
000000c0: 7690 9a3e 58af 243e 089c 9fbe b0fb 3abe
000000d0: 6758 0cbc a49c 4bbe 6718 553e 2864 253e
000000e0: cb31 3c3e 29c0 9a3e 3509 563e 71b4 983d
000000f0: e49e 8d3e fb63 23be a06a 303e f007 833e
00000100: 54c2 8cbe d093 8cbd 5cbc 933e 9776 ebbd
00000110: 86fb 6bbe b5dc 11be 7030 1c3e db1b fbbd
00000120: 6ebd dfbc bffd 3abe 5fb4 9fbe b053 6d3e
00000130: 67fb 343e c85f 87bd 47ec 88be 7925 97be
00000140: 6145 bdbe 8939 ac3e 5e83 ddbd 1b4f 843e
00000150: 844c 403e dd7f 6bbd ea26 963e 70f3 8c3d
00000160: 17cf a0be f2ae a93d bad7 21be aed1 903e
00000170: 3bcb 083e 7b06 223e 9b88 d3be 867b ccbe
00000180: 1bd6 e33d eb73 3dbe 40f5 a9be 33ab 91be
00000190: a21a f4bd b834 cebd e009 83be 9d01 d0be
000001a0: 6648 cbbe 78f6 b63e 80a6 a63e 5a3e 9f3e
000001b0: d604 ba3e 37f8 8f3e a938 29be 9c13 5d3c
000001c0: 6606 4fbe c243 613e a03c c3be 2a20 08be
000001d0: bfee f93c 1f6e 6fbe 8767 e5bd d5f6 1e3e
000001e0: e157 afbe 6c07 d93d e05d 333e 9126 7ebe
000001f0: bb9a 5e3e e62f e8bd 543d 453e bb52 8ebd
00000200: cdcf fa3d d767 05bd 9e7e 41bc 7cdf afbe
00000210: 504b c53e 1d92 b6be 3d61 343e d4f3 a7be
00000220: d99e 1fbe 173d 833d fd49 723e 5bf2 133e
00000230: 6a45 a3be 9fc7 c0be acae 47be c17d 03be
00000240: ae59 4d3e ebff b7be 2c15 9dbe a936 60be
00000250: 4b64 4a3c 8da1 7dbd 0192 ae3e be3b 37be
00000260: 3d98 45be 44c6 bbbe 2e73 cebe 7273 663e
00000270: 85a4 1abd 2399 d33d ebdc 4dbc c5c9 71bd
00000280: f675 b93e 0609 c4be e257 a0be 8aa4 a4be
00000290: 509a 183e fbc9 ac3d 1c95 84bd dee4 26be
000002a0: 9ec9 e2bc 4125 19be 40e6 553e 322c b4be
000002b0: 7059 963d f779 363e 0c26 dbbd dc14 86be
000002c0: faee 3a3e 1f07 373d 460c a4be 12a7 923d
000002d0: d41d 35be 7644 53be e5aa fdbd bfef 903e
000002e0: e95f c73e 72fd b03e afec bdbe 1b5a c5be
000002f0: dd00 ac3e 06f9 a83e 3c1a 023e 7f5d 19bd
00000300: 4ca2 54be 5459 91be 9aa8 d4be 6810 86be
00000310: a174 c4be 2c8c c13e b9be 9f3e 31a7 5b3e
00000320: 7b8a 0bbe 8985 99be fee2 97bd 524f 1abd
00000330: 0b8f 7dbd b091 cc3c 0550 abbe 3e3b 28be
00000340: 851e f4bc 4306 9e3e 63bc 7ebd 3b55 cf3e
00000350: 1105 57bd 7a3e 7dbe 3753 6b3e e82b d03e
00000360: ff77 7cbe 6064 413e 89ea 913e 27d3 18be
00000370: 7cf3 943e 345d 9abe b001 14be 0425 b4be
00000380: a264 bebe 7123 bd3e 267c c2be a919 a0bd
00000390: be59 87be 95e5 97bd 6dfc 70be 9e38 8fbe
000003a0: 4de5 6dbe cbce 773e ac42 afbd deb5 7cbe
000003b0: 9cf9 c8be e06b 9dbe a2e7 c63d 0f9a b83e
000003c0: 2adf 72be 5fba 38be 2464 dcbd 94fe 5b3e
000003d0: 26e4 7bbe dc26 703e 2db1 8bbe 252a 673e
000003e0: 0c22 293e 0a9d 823e 0ce8 003e 172b 8fbc
000003f0: ac8d 6b3e ca8f 4fbe 83a2 38bd 3566 ea3d
-0.114401214 0.008577896 0.29112154 -0.1914607 -0.22577143 0.08239368 0.042911123 0.29582056
0.08525064 -0.1505284 0.30805132 -0.34239507 -0.31847504 -0.09633657 -0.040205885 0.004151186
0.16323097 0.26969367 0.37833232 -0.11081803 -0.1611452 0.23719594 -0.12030799 -0.17948371
-0.39074636 0.30546188 0.22040169 -0.37941954 0.23901492 0.30085555 0.094937354 0.020383414
-0.03287152 0.057991855 0.31106377 0.2806918 0.36097243 0.29052836 -0.17495248 -0.38722387
-0.20758842 -0.038826637 0.39170507 0.0292833 -0.30946234 0.14187956 -0.31455553 -0.2810553
0.3018834 0.16082513 -0.3117373 -0.18260074 -0.008565999 -0.19883972 0.2081009 0.16151488
0.1837837 0.30224732 0.2090195 0.074562915 0.27660286 -0.15956108 0.17228174 0.25591993
-0.2749201 -0.068641305 0.28854644 -0.114972286 -0.23045167 -0.1424435 0.15252852 -0.122611724
-0.027312007 -0.18260859 -0.311923 0.23176455 0.17674027 -0.06610066 -0.26742765 -0.29520777
-0.36966994 0.33637646 -0.10816072 0.25841603 0.18779188 -0.057494987 0.29326564 0.068823695
-0.31407997 0.08285321 -0.1580495 0.28284973 0.13358776 0.15822785 -0.4131516 -0.3993799
0.11124822 -0.1850125 -0.33194923 -0.28450927 -0.11919142 -0.10068649 -0.25593472 -0.4062623
-0.39703673 0.35734916 0.32548904 0.31102258 0.36331815 0.2811906 -0.1652552 0.013493445
-0.20217285 0.21998504 -0.3813219 -0.1329352 0.03050935 -0.23381852 -0.11201387 0.15523846
-0.34246734 0.10597119 0.17516279 -0.248194 0.21738712 -0.11337261 0.19261676 -0.06949373
0.12246666 -0.032569733 -0.011809973 -0.34350193 0.3853402 -0.3565835 0.17615218 -0.32803214
-0.1558794 0.06408136 0.23661037 0.1444792 -0.31888896 -0.376523 -0.19500226 -0.1284094
0.20053741 -0.35937437 -0.30680215 -0.21895851 0.012353013 -0.061921645 0.34095767 -0.17893884
-0.19296356 -0.36674702 -0.4032225 0.22504976 -0.037754554 0.10331943 -0.012564878 -0.059030313
0.3622281 -0.38288134 -0.3131705 -0.32156783 0.14902616 0.08436962 -0.06473753 -0.16298243
-0.02768403 -0.14955617 0.20888615 -0.35189968 0.073412776 0.17819963 -0.10700616 -0.2618779
0.18255225 0.044684526 -0.32040614 0.071607724 -0.1768716 -0.20631585 -0.12386111 0.28307912
0.3894036 0.34568363 -0.37094638 -0.38545308 0.3359441 0.3300249 0.1270532 -0.03744268
-0.20765036 -0.28388464 -0.41534883 -0.26184392 -0.3837023 0.37802255 0.31200197 0.21450497
-0.13627045 -0.29984692 -0.07416342 -0.037673302 -0.061903995 0.024971813 -0.33459488 -0.16428849
-0.02979971 0.30864152 -0.06219138 0.40494713 -0.052495066 -0.24730864 0.22980963 0.40658498
-0.2465515 0.18885946 0.2849925 -0.14924298 0.29092014 -0.30149233 -0.14453769 -0.3518449
-0.37186152 0.36941102 -0.37985343 -0.07817394 -0.26435655 -0.07416836 -0.23533793 -0.27972883
-0.23232003 0.24199979 -0.085576385 -0.24678752 -0.39252937 -0.30746365 0.09712149 0.36055037
-0.23717943 -0.18039845 -0.10761288 0.21483833 -0.2459875 0.23452324 -0.27283612 0.2257467
0.16516894 0.25510436 0.12588519 -0.017476602 0.23003262 -0.20269695 -0.04507686 0.11445276
