pytorch_models/TD3_MultiDimensional-v2_0_actor.pth (torch_old, 492638 bytes, 6 tensors)

l1.weight f4 [400, 4]
00000000: 21eb 593e bdb3 a63e 5e64 3abe 777d 4b3e
00000010: 26a2 af3e 2356 f5be f4a0 183b 5904 9fbe
00000020: b27c d63e 6836 543e 7228 003e 9012 b4be
00000030: 90d8 6c3d c0fb 563e fc56 733e b693 dfbe
00000040: a5b6 c53e 1c8f b0be 546c 33be e6c9 1abe
00000050: b49b 693e 8d23 33be c7af a8be 7245 eebe
00000060: 94ca e93e 52ad babe 2faa 4f3e 2d47 edbe
00000070: c051 f23d 28f3 09be 28d1 f13d e878 debd
00000080: bdb1 023d 5d96 e2be c661 443d 09e8 ff3e
00000090: 3f61 813e f2c4 3e3e 4c3c f1be 9117 e73e
000000a0: 843b 7e3e 118f 343e 7f94 81be a38d 08be
000000b0: 9072 ae3c 34ed 89be 6425 9d3e c511 f53e
000000c0: 707b 6a3e 0838 78be 58e7 a13d e0df c2bc
000000d0: cc6f 5abe 732d c83d 02e5 b4be 3332 e23e
000000e0: 4538 afbd 6943 d7be 9505 2dbe 57f7 ae3e
000000f0: b28a ddbe c8c4 a8bd 3895 c1be 7035 563e
00000100: 2a84 98bc 989e dc3e fa50 513e bde8 d23e
00000110: ec54 a43e d5bb da3e 4d3d bdbe af95 55be
00000120: 9094 efbe 898f 87bd b0b6 303c 7a9e 7b3d
00000130: 1087 ce3e b9cc 9a3e 75b8 dabd 5698 13bc
00000140: ac67 9cbe 1a5f b43e e5c5 05be ecc0 493d
00000150: b34b 5f3e 4189 51bd 30f5 f53e 60c0 e9be
00000160: c229 bcbd e2d4 bebe 75eb eebd 99e9 c83c
00000170: b05c b13d 9ada dc3e f85c 60be 9c28 fbbe
00000180: 9c8c 3abe 3361 f5be 5a04 89be 6996 7b3e
00000190: 8462 d1be cef1 ab3c df8f 52be c067 773e
000001a0: 609b 5c3e 76ae 57be f4c8 1d3e cffa 2a3d
000001b0: 2bac d5be 7227 11bd a996 a83e 9daf f63e
000001c0: ae0e be3e 371a c7be 0d4d 3d3e b5d2 b73d
000001d0: e42c 883e da54 08be 4439 aa3e fde2 98be
000001e0: 70e6 c73d 82a3 a1be c0b2 353c b847 a5bd
000001f0: 9885 8ebd 80eb f0bd 4c0e 843e 0038 f8ba
00000200: 5d26 2a3e 7479 2bbd 5def 343e c5e0 423e
00000210: ba61 e13e ceb0 d83e 7b74 be3e ac4f 79be
00000220: 6029 c1be 5cb9 1abe 0dda 9c3d 32b6 a9be
00000230: f568 e53e 1dc2 dfbe dd3d 1f3e a6bf a03e
00000240: 8e98 473d 331c 803e 8465 18be 2387 b8bd
00000250: 489a 58be d4c8 3cbe ac1e bc3e 863f ce3e
00000260: d051 2d3e 9840 6b3e 000d 2d3e e852 7dbe
00000270: 91a4 ffbe d1dc bbbe db23 ee3e dd52 02bf
00000280: 7c8e d8bc b28e edbe 9dfe 653c 1f87 9b3e
00000290: 22d8 6abe 652a 89be 1b2c 0ebe 139a e4be
000002a0: f872 e5bd 7892 9cbd 4000 d7bd 54be 12be
000002b0: b464 d53d 62b1 d53e a75b 69be 5a90 b43e
000002c0: f5da 403e f18f 07be 1fb9 e5be 9ca7 133e
000002d0: 95c7 d13d 5059 acbe e06c a5bc a07e 953c
000002e0: ec29 473e 3e7d 12be fcb4 2d3e a547 183e
000002f0: 8fa2 00bf 95c3 003f 4d63 823c 8fd3 043e
00000300: a8ca 92be e73e d73d c9ac bdbe a828 be3d
00000310: 548f 8bbe 04c3 1c3e 0bef ed3d e8c3 fabe
00000320: cbda 1c3d b5d1 d23d 4f94 0d3c bb5c acbe
00000330: d3d2 a93e ded9 25be 7f6c 833d 673f b0bd
00000340: 7041 963e 1fcf 933d b7be 8f3e 5a40 abbe
00000350: 1848 e23d e099 e23d d093 d93d 400a e93d
00000360: f820 aa3d dd9e d7be 049e d73e 4bbf fabe
00000370: 35ba 643c 287f cebe d172 24bd 9dc8 30bd
00000380: 1aca a63e 5986 e43e b93a e5bc 67ed 78be
00000390: 9535 f23e 24b8 163e ea87 ddbe a41b b9be
000003a0: cbfa f13e 899c 88be 3bf5 c13d 19a2 83bd
000003b0: 1dfa babe 40e3 dc3e 659b 883e c5b8 823e
000003c0: 6ff3 cb3e e33f 6f3c 11a0 a9bd ba27 1dbd
000003d0: c9bd 7dbb 7091 55be d2ab d6bd e862 7a3e
000003e0: 357c e1bc 72de acbe 830c eb3d f24b 01bf
000003f0: 6012 963c e8b5 bf3d 501f 073e 1062 6c3d
0.21281101 0.32559004 -0.1820235 0.1987208 0.34303397 -0.4791728 0.0023289295 -0.31058004
0.4189201 0.2072388 0.12515429 -0.35170412 0.057823718 0.20994473 0.2376365 -0.43667382
0.3861591 -0.34484184 -0.17521793 -0.1511608 0.22813302 -0.1749403 -0.32946607 -0.46537358
0.45662367 -0.36460358 0.20279764 -0.46343365 0.11831999 -0.13471663 0.118074715 -0.10862905
0.031907786 -0.44255343 0.047944807 0.49981716 0.25269505 0.18629816 -0.47116315 0.45135167
0.24827391 0.176327 -0.25308606 -0.1333528 0.021294862 -0.26938784 0.3069259 0.4786512
0.2289865 -0.24240124 0.079054534 -0.023788393 -0.2133171 0.09774294 -0.3533097 0.44178924
-0.085556544 -0.42043617 -0.1689666 0.3417308 -0.4326988 -0.08240658 -0.37809157 0.20918822
-0.018617708 0.43089747 0.20441046 0.4119319 0.3209604 0.4272143 -0.3696083 -0.20857881
-0.46793032 -0.06619174 0.010785744 0.061430432 0.4033742 0.30234316 -0.10679714 -0.009008488
-0.30547845 0.35228807 -0.13063772 0.04925625 0.2180622 -0.051156286 0.48038626 -0.45654583
-0.09187652 -0.37271792 -0.116660036 0.02452545 0.08660257 0.4313553 -0.21910465 -0.4905442
-0.182177 -0.4792572 -0.26761132 0.24569096 -0.40895474 0.020989325 -0.20562695 0.24160671
0.21543646 -0.21062645 0.15408689 0.041743096 -0.41732916 -0.03543801 0.32927445 0.48180857
0.37120575 -0.38887188 0.18486424 0.08975736 0.2659675 -0.13313618 0.33246815 -0.29860678
0.09760749 -0.3157006 0.011089981 -0.0807032 -0.06959075 -0.11763668 0.25792158 -0.0018937588
0.16616197 -0.041863874 0.17669435 0.19031055 0.44019872 0.4232239 0.37198243 -0.24346799
-0.3772688 -0.15109771 0.076587774 -0.33146816 0.44806638 -0.43702784 0.15550943 0.31396216
0.04872947 0.25021514 -0.14882475 -0.0901015 -0.21152604 -0.18435985 0.3674215 0.4028284
0.1692574 0.2297386 0.1689949 -0.24738657 -0.49930242 -0.36691907 0.4651173 -0.5090769
-0.02643513 -0.4639793 0.014037755 0.30376527 -0.2293401 -0.26790157 -0.13884012 -0.446488
-0.11203569 -0.07645124 -0.104980946 -0.14330417 0.10419598 0.41736895 -0.22788869 0.35266382
0.18833525 -0.13238503 -0.448678 0.14419407 0.102431454 -0.3366189 -0.020193517 0.018248856
0.19449586 -0.14305589 0.16963571 0.1487108 -0.50248045 0.50298434 0.01591649 0.12971328
-0.2867024 0.105100445 -0.37045887 0.09285098 -0.27257788 0.15308768 0.116178595 -0.4897759
0.038294595 0.10293905 0.008641317 -0.33664498 0.3316866 -0.16196391 0.06417178 -0.08605843
0.293468 0.072172396 0.2807519 -0.33447534 0.11048907 0.110645056 0.10623896 0.11378908
0.083070695 -0.4211339 0.42112744 -0.4897407 0.013960411 -0.40331388 -0.04014856 -0.04316007
0.32576066 0.4463375 -0.027982103 -0.24309312 0.47306505 0.14718682 -0.43267757 -0.361539
0.47261652 -0.26681927 0.09470602 -0.06427402 -0.36518946 0.43142128 0.26681057 0.25531593
0.39834163 0.014602634 -0.08282483 -0.038367964 -0.0038717857 -0.20856261 -0.10481991 0.24451792
-0.027525047 -0.33763462 0.11476996 -0.5050651 0.018319309 0.09360868 0.13195539 0.057710707

l1.bias f4 [400]
00000000: a70b 5f3e 4c3d 97be 3b57 333e c624 e7be
00000010: da58 67bd 58f1 d33e fd18 31be be82 8dbe
00000020: e29e 9d3e 432c 0c3e 4c13 88bd 309c 3f3e
00000030: b618 f4be b25e 46be 60a6 2e3e 00d4 023e
00000040: aa9a 533d 0e87 9b3e 05f7 cfbd e626 01bf
00000050: c6cc c13e 10ea 7b3e 99d4 db3b b488 fdbe
00000060: 11c0 acbe 22b7 b2bd 7844 5ebe 5a8c de3e
00000070: b001 6d3d fc2a a13e 9c33 f7be 5c5b 89be
00000080: 685a 303e ce3c 55be e2dc aabe b244 803e
00000090: 0ad4 133e c661 f1be 6833 b4be 1d0e 9abe
000000a0: 3ac7 963e 1f15 773e f03d b3be aad9 663b
000000b0: c2df df3e a807 c3be 53de df3e 1fcf 133e
000000c0: 433a ec3d 4d59 39be c845 9f3e bc00 bd3d
000000d0: 6881 433e 1aed 9abe 6f32 a6be 6617 cdbe
000000e0: 5f5b ad3e 48f1 d03e c376 a03e 76dc bd3e
000000f0: 4e7d 9cbe a43f c33e d044 35be 02bc bbbe
00000100: e741 003e 5e79 e13e b6df 7b3e 76b5 c3be
00000110: 313f 99bd 6f9a d2be c97f 23bc 18d0 f0be
00000120: 3272 45be 30b1 febd 9a55 4bbd 5ec4 ac3e
00000130: 7e4e b2be f028 8dbe d275 8a3e 4ffd 34be
00000140: 26c4 c7bd ff83 3b3d 85a5 98be 5397 be3d
00000150: 1f1c adbd bc3f 41be 63d0 5abe 31da 843e
00000160: b672 cf3d d8be 09be d9a0 353e dc42 933e
00000170: 8c58 d0be a4c2 e53e c1da d23e 3b95 dc3e
00000180: e11c c13d 728b 3f3e 37a2 0e3e defe e33e
00000190: 188b cabd f032 a4be c9e2 22be 0487 71bd
000001a0: fc26 87be b47b a1be 967e 9f3e 6c23 e93e
000001b0: 4fa3 a2bd cc38 ecbe 8f5c 603e fd82 0c3c
000001c0: d9a4 f83e 92cf b9bd a25f febe ebe3 a33e
000001d0: 9d98 b13e a52e 503e 4cc3 513e 47e3 933e
000001e0: f2bc b13e 75ec be3e 60f2 73bc 0e72 fd3e
000001f0: 7e88 8e3e 764c adbe 262d 9e3e f576 893e
00000200: dfbb 903e 3d3b e43e cbc1 22be 342c c43e
00000210: 76a4 1fbc 4d4a c6be 3194 c03e ae82 fb3e
00000220: 0611 293e 445b 903d b350 cc3e e172 b23e
00000230: eef9 eb3e a8d2 bb3e a119 70be 40b6 f9be
00000240: 959e afbd 574b c5be 89d8 a63e be8a 0a3d
00000250: 457a e9bd 9312 c73e a60b f8be 6883 bbbd
00000260: 3697 b8be c6c2 ec3e 500a b7be 05e0 013f
00000270: 953a d9be 1782 a4be c7de 4f3d edc3 a9be
00000280: fe87 ddbe ba0a 0ebe 1882 e53e fe0c ac3d
00000290: a7ca 63be 5717 ac3e d267 d0bd 76f6 003f
000002a0: 463e c4be 4289 e23c 2b4e 8dbe 844a 33be
000002b0: a6e7 b3be 0ede 393e 1a28 81be fded 82be
000002c0: f6d9 983d 6fe1 253d 1a7e d9be ebd3 17be
000002d0: 8c69 663c 73b3 2cbd 468b 33bc dd70 673e
000002e0: 0f13 ec3d ab86 c53e 2c6e 893e d044 e3be
000002f0: 3c7a 9cbd 1849 7b3e 406a a13e df47 eebe
00000300: 8884 86be 09a5 b43e 866a 8bbe 1802 b2bc
00000310: 3d57 84bd e686 353e 673a f63e e827 b8be
00000320: 1b42 e93d c313 123e 05cd 9abc 49eb 51be
00000330: 1ccb ddbe a605 4bbe a380 02bf 64d9 83be
00000340: e422 15be f4c4 03be 3362 1abe 12d6 1dbe
00000350: 0be1 5f3e f56e bbbd 3867 bd3e 790e 87be
00000360: 09cb 9f3e 9f47 adbe 9f2b 6a3e 7134 ebbd
00000370: ce27 ba3e 9f1a dbbe 8c03 cbbe a74f b23d
00000380: 14d9 ddbe 67aa 923c b049 a63c 0000 d9be
00000390: dcc5 b1bd 1e9a 993e 263f c9be 7fe9 f83b
000003a0: efce 40bd c8e1 013f 8765 2cbe e48a 9cbd
000003b0: aea5 323e 9a4d e4be fc48 eabe ffbf bf3d
000003c0: d324 b93e 264f e03e 0806 043f 4596 ea3e
000003d0: 0c0c ca3e f2fb c6be 166b 613e 74e4 d63e
000003e0: f518 4a3e 345b c8be 33f4 423e 4a85 d7be
000003f0: 7648 843d 815d b4be 4d52 cb3e a23e 0bbe
0.21781789 -0.29538953 0.17513745 -0.45145243 -0.05648122 0.41395068 -0.17294689 -0.2763881
0.3078528 0.1368876 -0.066443056 0.18711925 -0.47675103 -0.19372061 0.17055655 0.12776184
0.05166117 0.30376476 -0.10154537 -0.5044998 0.37851542 0.24601007 0.006708693 -0.4951836
-0.33740285 -0.08726336 -0.21705806 0.43466455 0.057862937 0.31478107 -0.48281562 -0.26827514
0.17221987 -0.20823976 -0.33371645 0.2505241 0.14436355 -0.47144908 -0.3519547 -0.30088893
0.29448873 0.24129151 -0.35008192 0.0035224953 0.437254 -0.3809178 0.43724307 0.14434479
0.1153455 -0.18100472 0.31107926 0.09228656 0.19092333 -0.3025902 -0.32460353 -0.40056914
0.33858773 0.40809083 0.31340608 0.3708226 -0.3056435 0.3813449 -0.17702031 -0.36666876
0.1252514 0.44037908 0.24597058 -0.3822438 -0.07482756 -0.41133448 -0.009979197 -0.47033763
-0.19281843 -0.124361396 -0.049642183 0.33743566 -0.3482551 -0.27570295 0.27043015 -0.17674755
-0.09754209 0.04578018 -0.2981378 0.093062066 -0.08452629 -0.18871969 -0.21368556 0.25947717
0.10129301 -0.13451707 0.1773714 0.28761947 -0.40692556 0.44875062 0.4118252 0.43082604
0.09429336 0.18705538 0.13929068 0.44530386 -0.09889811 -0.32070112 -0.15906824 -0.05896665
-0.2639693 -0.3153969 0.31151265 0.45534837 -0.07941305 -0.46137083 0.21910308 0.008576152
0.4856327 -0.09072794 -0.49682337 0.32009825 0.34686747 0.20330293 0.20484656 0.28884336
0.34714466 0.37289777 -0.01488933 0.4950108 0.2783851 -0.33847398 0.3089382 0.2684857
0.28268334 0.44576445 -0.15894239 0.38314974 -0.0097438 -0.38728562 0.3761306 0.49123138
0.165104 0.070486575 0.3990532 0.3485327 0.4608912 0.36684155 -0.23447277 -0.48771858
-0.08575169 -0.38534042 0.32587078 0.03382372 -0.11400274 0.38881359 -0.48446387 -0.09155923
-0.36052865 0.4624235 -0.35750055 0.5073245 -0.42427507 -0.321305 0.050749566 -0.33157292
-0.43267816 -0.1387128 0.44825816 0.084009156 -0.22245274 0.33611557 -0.10176052 0.5037607
-0.3832876 0.02765334 -0.275987 -0.17508894 -0.3513767 0.18151113 -0.25225908 -0.25572196
0.07463448 0.040498193 -0.4247902 -0.14826934 0.01406325 -0.042163324 -0.010958498 0.22601648
0.11527073 0.38579306 0.26841867 -0.44388437 -0.07640502 0.24539602 0.31526375 -0.46539208
-0.26272988 0.35282162 -0.27229708 -0.021729514 -0.06461952 0.17727241 0.48091432 -0.35967946
0.11389562 0.14265351 -0.018896589 -0.2049991 -0.43319023 -0.19826373 -0.50977534 -0.25751793
-0.14564091 -0.128681 -0.15076523 -0.15413693 0.21863191 -0.09152023 0.36992812 -0.2637823
0.3120959 -0.33843705 0.22868203 -0.11484612 0.36358494 -0.42793748 -0.39651144 0.08706599
-0.4332968 0.01790352 0.020298809 -0.42382812 -0.08680317 0.30000395 -0.3930599 0.0075961943
-0.047072347 0.5073514 -0.16835605 -0.07643679 0.17446014 -0.44590455 -0.45758808 0.09362792
0.36160907 0.43810385 0.515717 0.45817772 0.39462316 -0.38864094 0.22013506 0.4197117
0.19736083 -0.39132082 0.19038467 -0.4209388 0.06459133 -0.35227588 0.39711228 -0.13598111

l2.weight f4 [300, 400]
00000000: f055 40bd 0eee 05bd cc3a 46bd fb22 2abd
00000010: fed5 47bd e709 6f3c 4dd6 66bc 60b4 22bc
00000020: 883b f6bc 4290 6ebc 3fc5 d73c b02a 0abb
00000030: 9a2e 48bd a7ba 433d 7bff 093d e6b3 75bc
00000040: 32cf ecbb 0f39 7abc ef13 2cbc 86b5 03bd
00000050: 46a3 86bc b3ee e83c 7b41 21bb f701 36bd
00000060: c3ff 59bd 53b3 573c 8075 273a 8c38 493d
00000070: a788 0abd 0504 bf3c 7d23 29bd eb00 453d
00000080: d72f 44bd f63a 213d 440f 833c f512 033d
00000090: 15f3 ac3a 9043 f4bb f8d7 32bd 9767 54bd
000000a0: 3b90 913c 6eac 783c ae98 993c eb6e 34bc
000000b0: 33b2 493d 0040 f2ba e1c7 24bd 9082 033d
000000c0: 08ea a23c 2acb 1d3d f98e 4c3d f1ff b9bc
000000d0: 9fc6 d9bc 9ba7 473d 4a83 4dbc df4c 36bd
000000e0: d2cd 24bd 433f 70bd dc00 a13c 8fa5 e03c
000000f0: 43c4 e7bc 16b0 e1bc e78d afbb c407 583c
00000100: 06a5 0dbd 0ff3 2cbd 3168 6e3d d0f7 b43b
00000110: bf76 46bc c1af a4bb 8351 803c c758 273d
00000120: 029d 1a3d 2848 babc f67d 1c3d 3851 55bd
00000130: 3b2e d43b 297b 1ebd 8001 ab38 3f74 03bd
00000140: 724e 843a 1838 923c 9643 27bd 2c23 6c3d
00000150: fe84 233d 7436 91bc 5eb4 04bd 5b19 eabc
00000160: 940a 11bc 39f0 31bd 90ca 353d cc9d 9f3b
00000170: 2cfc 123c 20a3 a23c c3c0 843c 27ee 3fbb
00000180: cf6f e33a 8ed3 59bd b7ed 533d bf79 3e3d
00000190: 62c2 f23c 80c0 a8bc 600e 22bd 21bd 163d
000001a0: 9a85 e63c 43e8 453c be15 233d 794e 613c
000001b0: 10a0 c23c f404 713c 0d79 75bc 15a7 e13c
000001c0: 2c38 5d3d 7fac 12bd 1ae5 363d e1e9 66bc
000001d0: 699e 283d 6f41 8bbc f38b cbbc 722a 0bbd
000001e0: 37fe 1a3d 0b91 dabc 307f a8bc d13a 473d
000001f0: a263 fdbb d073 eb3b 5753 8c3a 3654 bb3c
00000200: 9d21 2e3d 79a0 b7bc d9e7 ddbb 4d21 9d3a
00000210: db94 b43c 8089 ae39 7e9f 6fbc b5da 333c
00000220: 9f08 863d b98c 7fbc 92a5 f93c 4e3d 81bd
00000230: d8c5 1d3c 8383 51bb cb7e 393d b10b 023d
00000240: 34e7 573d 1aa8 9b3b 4c34 6a3c b9ff 9e3b
00000250: 781a 0fbd 33b8 983c f308 a1bc c788 a43b
00000260: 4d35 e93c 7012 bcbc ab36 7e3b d7e1 083c
00000270: b987 723c c11b 833c 15a9 613d 32f2 eb3c
00000280: 87c1 183d 5253 1f3d 141e 733c 2f7b a83b
00000290: bd09 2fbd 850c 4f3b df80 283b 5eea 85bc
000002a0: 717b 0d3d 7586 153d 7230 1c3d 4235 893c
000002b0: c946 193d 2f46 02bb 7739 413d 1b82 d53b
000002c0: 67e7 db3c 19c0 833c 3b86 e0bc a7f5 4dbc
000002d0: 2336 b63c 0a7c 163d 13e8 1b3d fbe2 f13c
000002e0: d59d 03bd d80e f6bc 73af 86bc caa3 fbbc
000002f0: 7555 f23c a166 b53c 8720 2d3c 9221 fc3c
00000300: 3919 0a3d 5159 ddbb 11ad 893c b4c5 0b3d
00000310: dbc4 fcbc 2cbe eb3c e06d 37bd 000b a1bc
00000320: 1148 07bc 63af 013d 62ff e5bc 973b 16bc
00000330: 1af5 08bd 5a41 943c 4dfb e8bc 9ed2 10bc
00000340: e8ab d0bc f279 d83c 95f8 a43c 7933 a63c
00000350: 6b28 a9bc d903 4fbd 3180 2cbd 2316 6ebc
00000360: 0975 b73c b76c 7439 1949 21bd eb37 143d
00000370: 47dc 093d 0c10 28bc d67a aa3c a857 3cbd
00000380: 8d1b 143d 0118 7e3c 14f0 4b3c 730b 213d
00000390: ae32 e53c 228a 23bd 90c2 d43c 9be2 3dbc
000003a0: b975 6a3c 71c1 efbc 3b83 c43c d82d b53c
000003b0: 3b6e e63c f6d9 1dbd 32b6 5fbd 196f 2e3d
000003c0: 45f1 833c ec23 f9bb 5253 233b 01ee d33c
000003d0: f131 d6bb c8f0 c1bc ebac f23c 40fc 563d
000003e0: 929d 6a3d 8f54 9aba 13f3 513c 7dbf 29bd
000003f0: d1fe dd3c e6a4 fa3c 93a6 833d 94f7 60bd
-0.046956956 -0.03269773 -0.048395917 -0.041537266 -0.048788063 0.014589763 -0.014089179 -0.0099307
-0.030057684 -0.014560761 0.026339171 -0.0021082573 -0.048872568 0.047785427 0.03369091 -0.014996504
-0.007226848 -0.015272393 -0.010502799 -0.032155536 -0.016435277 0.028434133 -0.002460568 -0.044435468
-0.05322243 0.013165313 0.00063880533 0.049126193 -0.033821728 0.023317346 -0.04129361 0.04809658
-0.047897186 0.03936287 0.01599849 0.0320005 0.0013195003 -0.007454343 -0.043662995 -0.051856603
0.01776897 0.015177829 0.018749561 -0.011012773 0.04924221 -0.0018482208 -0.040229682 0.032106936
0.019886985 0.03852383 0.049941037 -0.02270505 -0.026583968 0.048743825 -0.012543509 -0.044506904
-0.040235348 -0.05865408 0.01965373 0.027422694 -0.028291827 -0.027549785 -0.0053574922 0.013185445
-0.034581207 -0.042223986 0.058204833 0.0055227056 -0.012113272 -0.0050258343 0.015663868 0.04085615
0.03774739 -0.022739485 0.038206063 -0.05207941 0.0064752377 -0.038691673 8.154195e-05 -0.032093283
0.0010094179 0.017849013 -0.04083594 0.05765073 0.039921753 -0.01772616 -0.032398574 -0.028576544
-0.00885262 -0.043441985 0.04438263 0.004871106 0.008971255 0.019853175 0.016205197 -0.0029286237
0.0017352047 -0.05318027 0.051740374 0.046502825 0.029633705 -0.020599604 -0.03956449 0.03680146
0.028139878 0.012079301 0.039815657 0.0137516195 0.023757964 0.014710654 -0.014982474 0.027545491
0.054008648 -0.035809036 0.044652082 -0.014093847 0.041166697 -0.016998975 -0.024847006 -0.033976026
0.037840094 -0.02668049 -0.02056846 0.048640076 -0.0077328244 0.007185437 0.001070599 0.022867303
0.042512525 -0.022415387 -0.006772023 0.0011988074 0.022043636 0.00033290312 -0.014625428 0.010977437
0.06544613 -0.015597516 0.030474458 -0.06310521 0.009629689 -0.0031969256 0.045286935 0.03174943
0.052710727 0.004750264 0.014294695 0.004852262 -0.034937352 0.01864252 -0.019657588 0.005021188
0.028467799 -0.02295801 0.003878991 0.008354626 0.014802867 0.016004445 0.05509289 0.028802011
0.037293937 0.03889782 0.014838714 0.0051416378 -0.042733897 0.0031593156 0.0025711579 -0.016347107
0.03454155 0.03650518 0.03813214 0.016749028 0.03742102 -0.0019878258 0.047173943 0.006515754
0.02684374 0.01608281 -0.027407756 -0.012570775 0.022242611 0.036739387 0.03806312 0.029527178
-0.032132942 -0.030036375 -0.016441083 -0.03071775 0.029581765 0.022143664 0.010566837 0.030777726
0.03371546 -0.006755032 0.016806157 0.03412409 -0.030855587 0.028777204 -0.04478252 -0.019658566
-0.008256928 0.031661402 -0.028075878 -0.009169481 -0.033436872 0.018097568 -0.028440142 -0.008839278
-0.025472596 0.026425336 0.020138064 0.020288216 -0.020649156 -0.05054078 -0.04211444 -0.014531645
0.022394674 0.00023310153 -0.039376352 0.03618614 0.03365734 -0.010257732 0.020810526 -0.045982033
0.036159087 0.015508653 0.012447376 0.03931756 0.027978268 -0.039926656 0.02597168 -0.0115896715
0.014310294 -0.029267045 0.023988357 0.022116587 0.028128734 -0.038537942 -0.054617114 0.04258642
0.016106257 -0.007603159 0.002492149 0.025870325 -0.006536715 -0.023674384 0.02962347 0.052486658
0.057279177 -0.0011774468 0.012814301 -0.041442383 0.027099045 0.030596208 0.06428256 -0.05492361

l2.bias f4 [300]
00000000: 2289 77bc e885 a73d 4a07 e33a bc5b ac3c
00000010: e6dd ee3b 2cf6 8e3b e92d a43d 1bfe 513b
00000020: 9c08 0fbd 8aca 0f3d 66e1 0b3d 2dc1 cabc
00000030: c7cf 283d b566 15bd c62f ef3c 77f0 91bc
00000040: 4b96 16bc 273e 65bc 68c7 05bc 124c 5a3c
00000050: e1f4 f33c b31d 003d aff3 e33c 7dbd 12bd
00000060: 7d59 0f3d 84b7 673c 8be3 063c a204 57bd
00000070: 1df1 683c 7a00 05bd 1779 41bd fc63 0e3d
00000080: af60 273d f7a0 e53c d643 59bc 22de 09bd
00000090: 6ca1 183d b253 7dbc 1d5f 7e3b bf20 293b
000000a0: 29e0 12bd 9eb8 e33c 3181 0dbc 8bb8 343b
000000b0: 0e1c 84bb 5c18 94bc d705 00bc c65c 48bd
000000c0: 1740 cfbc b36f 3abc afef c0bb 0881 63ba
000000d0: e225 fd3c e261 a73d e748 a1bc 1fa0 1c3d
000000e0: 452f 713b ca8b c93c 7043 c43b 6073 0e3b
000000f0: 6c84 873b 89b7 43bd 7706 283d f2c3 723d
00000100: fb1b 4dbc e0e3 34bd f155 123c a221 053d
00000110: a01b 013b 21eb 6d3c 8bed 093d c05f 6abc
00000120: 73ae 12bd d83a 933b b6ee 27bd 80f5 e13b
00000130: 0281 4ebd 98e4 843c a6fe f03b d57e cdbc
00000140: cf8d b43c 4566 823c e8ff f9bb b0fd 323b
00000150: 91aa 2dbd 14fa 1c3d e097 c03c a814 ae3b
00000160: 9848 c1bb 759c 3a3d 7e20 45bd 7427 0a3d
00000170: 1c34 753c b3fe 603b 9710 2ebb d07d fdbb
00000180: b558 8b3d ff82 0e3d f6c6 2cbc 68e3 123d
00000190: 80c1 d23b 4964 0fbd af12 68bd 8d26 0d3d
000001a0: 407b 3cbd 645e a1bb a188 cc3d 6d18 283c
000001b0: ebad 233d 9c56 183c a11c 083d 1a5f b13c
000001c0: 3bfe d53c 0b70 05bd f949 403b 3546 893c
000001d0: eb79 34bd 070f b23c 1704 163d 65bd ba3b
000001e0: 663a 79bc e029 43bc 950c 0bbd afd6 173d
000001f0: b812 59bd 171c d0bc c61a adbc a812 0e3d
00000200: a059 2fbc 2d0c 56bd cf7f 1bbb 2e38 ca3c
00000210: 780a 1dbd 156b 34bd bf98 7ebc fca5 6a3a
00000220: 0fad 8ebc 14ac c1bc 7682 dcbc e493 913d
00000230: 8ac6 4abd f3a7 54bc 136d ab3c 7f44 47bd
00000240: fded 0dbd 9996 123c 65e9 de3c 57dd 11bc
00000250: eca6 513c 003f ddb9 c3a2 21bd fce4 c9bb
00000260: d650 4f3d 1af5 f0bc 80e8 1bbd aa47 823d
00000270: 2b97 d4bc c2b4 443d d19e 44bd 5ba8 34bd
00000280: 494d 213d 6a7e fbbc a076 5dbd 3465 f53c
00000290: 2505 623b d9ba 583d e1a0 a1bc d599 a43c
000002a0: 3db9 05bc a08f 81ba b845 1bbc ff83 2b3d
000002b0: 043e 373e ad06 16bd 852d c6bc 0f08 c83c
000002c0: 2e24 133d b8ed a13c 12a7 05bd e375 f9bb
000002d0: 4487 22bc f1ef a9bc c72a 813b e131 053c
000002e0: 5355 043d bdf1 53bd 4661 96bc 285a 863b
000002f0: c943 5cbd ae67 74bd 8b3d a1bc 866d 04bd
00000300: 4d6e 263d 0f96 853c 64e8 2b3d 03cb 2a3d
00000310: a997 013d d602 073d 9001 04bd 95f1 073b
00000320: f0cf 13bd 76cc 1abd 66cb 953c 5216 31bc
00000330: d046 e83c 5fad 6d3c 0d68 e23c 41d3 d43c
00000340: 4807 19bd 78a3 51bd bf38 793c 26d1 a6bc
00000350: 0679 95bb 5963 9e3c 95ef 683b 7726 163b
00000360: 5cd6 e93c 86ea a63b 6701 a13a 8288 07bd
00000370: ed87 98bc ba1a 573d 01be b4bc c70e 8f3c
00000380: ff2a 5f3c 249e 393c 7d50 e33c 394f 22bd
00000390: b8ae 26bd e081 193d 7dc4 65bd f4c1 8bbc
000003a0: c475 29bd 43ed e2bb dfc6 bdbc e1f4 8dbc
000003b0: 2023 e93c c6e6 5d3b 4451 1e3d eedb 21bd
000003c0: 59a0 7bbc 03f5 273d b870 e1bc 8daa 53bd
000003d0: b4eb 05bd 35af bf3b 462e 583d 0337 15bd
000003e0: 6446 c83c 256d 4dbd 532d 8abc 6454 5dbd
000003f0: 8e27 813d 1b90 4f3c 4721 f8bc 68a8 07bd
-0.015108379 0.081798375 0.0017320898 0.021039836 0.007289636 0.004362842 0.08016569 0.0032042328
-0.03492032 0.035105266 0.034150504 -0.024750317 0.041213777 -0.036474902 0.029197585 -0.017814858
-0.009191106 -0.013991869 -0.008165218 0.013323801 0.029779853 0.031278323 0.027826158 -0.03582524
0.034997452 0.014142875 0.008232961 -0.052494653 0.014217642 -0.032471158 -0.04723462 0.03476332
0.04086369 0.028030856 -0.013260802 -0.033659108 0.03726332 -0.015461849 0.0038814016 0.0025806872
-0.035858307 0.027797993 -0.008636759 0.0027575816 -0.0040316647 -0.018078022 -0.007813892 -0.0489166
-0.025299115 -0.01137917 -0.0058879475 -0.000867859 0.030901853 0.081729665 -0.019688083 0.03823864
0.0036801856 0.02460279 0.0059894845 0.002173625 0.004135659 -0.047782455 0.04102179 0.0592689
-0.012518878 -0.04416263 0.008931623 0.032502778 0.0019700304 0.014521391 0.033673804 -0.014305055
-0.0358109 0.0044930987 -0.040999137 0.006895721 -0.050416 0.016222283 0.007354575 -0.025084892
0.022040276 0.015917907 -0.0076293834 0.0027311854 -0.042398993 0.03832443 0.02350992 0.005312521
-0.0058985464 0.045559365 -0.04812669 0.03372903 0.014966037 0.00343315 -0.0026560181 -0.0077359453
0.06804029 0.034792896 -0.010545483 0.035861403 0.0064317584 -0.03500775 -0.056658443 0.034460593
-0.046015978 -0.0049245823 0.099869974 0.01025973 0.039960783 0.009297993 0.033230428 0.021651793
0.026122203 -0.032577556 0.0029340966 0.01675711 -0.044061583 0.021735681 0.036624994 0.005698847
-0.015211677 -0.011911839 -0.033947546 0.037069973 -0.052996367 -0.02540402 -0.02113093 0.03468576
-0.010702521 -0.052257705 -0.0023727303 0.024684992 -0.038340062 -0.044047434 -0.015539347 0.0008951125
-0.017416505 -0.023641624 -0.026917677 0.07108286 -0.049505748 -0.012979495 0.020926034 -0.048649307
-0.03465079 0.008947038 0.0272109 -0.008902869 0.012796145 -0.00042199343 -0.039461862 -0.0061613303
0.0506142 -0.029413749 -0.038063526 0.06361325 -0.025950989 0.048023947 -0.04800302 -0.04410587
0.039380345 -0.030699927 -0.054068208 0.029955484 0.003448793 0.052912567 -0.019730033 0.020092884
-0.00816184 -0.0009884723 -0.009477071 0.04187393 0.17894751 -0.03662746 -0.024191627 0.024417905
0.035923176 0.019766673 -0.032630034 -0.00761293 -0.009919945 -0.020744296 0.003941867 0.008129568
0.032307934 -0.05174421 -0.01835693 0.004100103 -0.053775582 -0.05966919 -0.019682666 -0.032331012
0.040632535 0.016306905 0.04196967 0.041697513 0.031638775 0.03296169 -0.032228053 0.002074336
-0.036086977 -0.037792645 0.018285464 -0.010808544 0.028354079 0.014506667 0.027637506 0.02597964
-0.03736046 -0.051181287 0.015211283 -0.020363402 -0.0045615463 0.019334482 0.0035543193 0.002291111
0.028544597 0.0050938753 0.0012283743 -0.03308917 -0.018619502 0.052515723 -0.022063257 0.017463101
0.013621091 0.011329208 0.02774834 -0.039626334 -0.04069397 0.037477374 -0.05609559 -0.017060257
-0.041372076 -0.0069252565 -0.023166118 -0.017328681 0.028459132 0.0033859476 0.03865172 -0.039516382
-0.015358054 0.041005146 -0.027519569 -0.05167632 -0.032695487 0.0058497437 0.052778505 -0.036429416
0.024447627 -0.050152916 -0.016867315 -0.05403556 0.063063726 0.012668635 -0.030289305 -0.03311959

l3.weight f4 [2, 300]
00000000: c33f 87bd 1c2a 16bd 2d8e 5e3d e29a 03bd
00000010: 6941 f8bc 0630 64bd 97a1 55bd a909 063d
00000020: f4e9 9a3c d055 4c3d d905 74bc bc45 0d3d
00000030: 1fa6 ff3c 8e47 a3bc d721 9abc a8c6 5abd
00000040: 0451 d13c d88c 39bd 5ce1 3e3d 97f0 a53c
00000050: fb3b b23c cfa3 433d 343b 4abc 78bc 273d
00000060: 81c3 e53c 0826 783c ce5e 62bd bcf5 fe3c
00000070: 8866 433d 24d7 1fbd 56b2 d8bc ef40 3c3c
00000080: 45f3 7b3c 1216 283d be44 113c f687 8abd
00000090: 670a 09bd 2930 68bd 8285 95bc 7622 493d
000000a0: 5e5a 393c 61c1 3e3c 975d 02bd bf1a 473b
000000b0: c498 eebc f46a 8f3c 8578 383d 85af 163d
000000c0: 062e 103c 28d9 f5bc dfbd c83c a128 91bd
000000d0: 75e4 ec3b 0012 15bd ce78 fdbb 251b a13c
000000e0: 335d 403c a48e 2f3d ed6e febc 60f2 c13c
000000f0: 4be1 013d 1e15 dbbb 0c8a 833c 6528 b6bd
00000100: 12ca 21bb 2d8e ef3c a5f7 fa3c 89a8 80bc
00000110: 88cd 283c 162d 0abd 8367 c5bc bc0b 4e3d
00000120: 88ea 8b3c b8f4 7f3d 3062 953b 982c b63c
00000130: d00a d13c 5600 08bd 54e3 2c3d d288 2b3c
00000140: 2a91 ad3c 768f f73b 88d5 7cbc 9906 15bd
00000150: 5b14 6cbd 1fa9 24bd 2b38 fd3c 7345 083d
00000160: ca26 94bd 442e be3c f347 b23c 76cb a9bc
00000170: 718b ec3c d6cf d1bc fd47 93bd e694 303d
00000180: d252 78bd 910d 3c3d c357 143d b2ad 83bd
00000190: fd90 01bd 2607 dfbc e6fb 8a3c dc3d 2abb
000001a0: 48aa 6c3c b2ca e9bc cc13 77bd 5bc7 92bd
000001b0: 7d01 f93c e180 9cbd d496 71bb ce46 253d
000001c0: 7062 4bbd ae17 b63c 3ced fdbc 3ce9 dd3b
000001d0: 51e1 0fbd ec17 bbbd 5352 dabc 0a20 fabc
000001e0: 66dc 703d 263f 163d fad4 6b3d ebe7 4c3d
000001f0: 2fd0 debc 545f f73c aef0 8f3c e24e 3abd
00000200: 10fe 073c 9c16 1dbb fa90 f4bc 9faf a6bd
00000210: 2f47 fd3c f739 4fbc 28f4 6bbc 27cd 81bd
00000220: f8bc 853b e547 213d f22d 88bb a743 abbd
00000230: 28ff 29bd bb66 b2bd f7b5 4dbd b06c a2bd
00000240: d989 9cbc 5b6a 32bd afd5 273d dc76 c13c
00000250: a2ab c2bc 7ad6 3b3d 8099 0d3c dd68 523d
00000260: b283 3bbd 625c 113d 3f83 33bd a095 b8bd
00000270: ce80 df3a 854d 8dbd 931e c9bb 7daf 17bd
00000280: 7d84 5cbd 4d34 793d b9ac 353d d94f bdbc
00000290: 36cd ae3b 7f8c bebd 941b bd3c 011d 203c
000002a0: c66b 343d 0ac4 133d 60f3 4b3c 92e8 b3bc
000002b0: 4f65 9bbe 63fb 093c 4bd2 df3c fe30 333d
000002c0: c379 2cbd 4645 7ebc 122b 413d e419 ca3c
000002d0: 5a21 193d fe2c cc3c 4c86 9fbd 3ed7 8bbd
000002e0: d098 393d 5c61 34bd d488 223d e06d 663c
000002f0: 16f3 113c 27f4 1c3b e23f 1abd c383 903c
00000300: d59d f43c b846 a3bc fbb1 e43c a081 bc3c
00000310: 8ae3 533c 3a83 2c3d 12b5 883b 140a 72bc
00000320: 572e e7bc 5f11 bc3c f454 4ebd bef5 443c
00000330: 3a64 29bd 1008 183d 2c3d 093c 4224 e73c
00000340: c073 a7bb e5f5 95bc 4040 98bc 371e ff3c
00000350: be40 4a3c 6d04 5cbd f0bd b9bd ff8a 6fbd
00000360: fd3d 3bbc 516c 4dbd 8d1c 4dbd 4c8f 0ebd
00000370: 8e54 1bbc b1fd 70bd e0e3 59bb 0fd5 183d
00000380: 19c5 24bd b633 033d 8be4 f33b 3d08 11bd
00000390: 6838 37bd 3caf b6bd 130f cb3c 7175 b5bb
000003a0: d01e 963c 56e5 13bd d44f 833c f83c 76bd
000003b0: 9c4b 9ebd 160f 10bd 415f 273d e081 9e3b
000003c0: a08b 49bc bf04 32bd 9e4e 163d b4cf b43c
000003d0: 9ff7 d0bc b3e3 303d 17f4 49bd cc92 af3c
000003e0: a906 283d 09cf 34bc e29b 273d d89e 9abc
000003f0: 5141 79bd 8b21 123d 8884 20bd f7f1 40bc
-0.066039585 -0.036661252 0.05433481 -0.03213013 -0.030304627 -0.05570986 -0.052156057 0.032724056
0.018910386 0.049886525 -0.014893972 0.034490332 0.031207142 -0.01993158 -0.018814964 -0.05341211
0.025551327 -0.045300335 0.04660164 0.020256324 0.021757117 0.047763642 -0.012343217 0.040951222
0.028047325 0.015145786 -0.055266194 0.031123035 0.047705203 -0.039023533 -0.026452225 0.011490091
0.015377824 0.041036673 0.008866487 -0.06764214 -0.033457186 -0.056686554 -0.018252138 0.04910513
0.011313049 0.011642785 -0.031827535 0.0030380932 -0.029125579 0.017507054 0.04503681 0.036788482
0.008800035 -0.030010775 0.0245046 -0.070878275 0.0072293826 -0.03639412 -0.0077353483 0.019666264
0.01174097 0.042860642 -0.031058753 0.023675144 0.031708997 -0.006685867 0.016057037 -0.088944234
-0.0024687094 0.0292426 0.030635664 -0.015705364 0.010302909 -0.033734404 -0.02409721 0.05030416
0.017079607 0.06248924 0.004558824 0.02223806 0.025517851 -0.033203445 0.042208984 0.010469632
0.021187384 0.0075549437 -0.015431769 -0.036383245 -0.0576366 -0.04020035 0.030910572 0.033269357
-0.07233961 0.02321542 0.021762824 -0.0207269 0.028875085 -0.0256118 -0.07191465 0.04311075
-0.06062586 0.045911375 0.03621651 -0.06429614 -0.031632412 -0.027225088 0.016965818 -0.0025976812
0.014444895 -0.028539035 -0.060321614 -0.0716693 0.030396217 -0.07641769 -0.0036863582 0.040350728
-0.049654424 0.022228088 -0.030996911 0.0067721885 -0.035126988 -0.09135422 -0.026650583 -0.030532856
0.05880394 0.036681317 0.057576157 0.05002586 -0.027198879 0.030196823 0.01757082 -0.045485385
0.008300319 -0.0023969775 -0.029854286 -0.08138966 0.030917732 -0.012648097 -0.014401473 -0.06337958
0.0040813647 0.039375205 -0.0041558677 -0.08362513 -0.0415031 -0.087110005 -0.050222363 -0.07930887
-0.0191087 -0.04355846 0.04097527 0.023616247 -0.023763482 0.045858838 0.008642554 0.051369537
-0.04577989 0.035488494 -0.043826338 -0.09012914 0.0017051937 -0.06899551 -0.006137678 -0.037032593
-0.05383729 0.060840894 0.044354174 -0.023109363 0.0053345216 -0.09304141 0.02308444 0.00977254
0.044048093 0.03607563 0.012448162 -0.021961484 -0.3035073 0.008421752 0.027321955 0.043747894
-0.04210831 -0.015519446 0.047160216 0.024670549 0.037385322 0.024923798 -0.07789287 -0.068281636
0.04531175 -0.04403816 0.03968127 0.014064282 0.008908054 0.0023949237 -0.03765858 0.017640954
0.029860416 -0.019931182 0.027916899 0.023011029 0.0129326675 0.042117335 0.004171976 -0.014772911
-0.028220339 0.022957502 -0.050373986 0.01202148 -0.04135535 0.037117064 0.008376401 0.028215531
-0.005110234 -0.018305728 -0.018585324 0.031142337 0.012344537 -0.05371516 -0.09069431 -0.058482166
-0.011428353 -0.050152127 -0.050076056 -0.034804627 -0.009480609 -0.05883569 -0.0033247396 0.037312564
-0.04022703 0.032031737 0.007443016 -0.035408247 -0.044731528 -0.08920142 0.024787461 -0.0055376817
0.01832524 -0.036107384 0.016029276 -0.060116738 -0.07729265 -0.035170637 0.040862326 0.0048372597
-0.012301356 -0.043461557 0.03669607 0.022071697 -0.0255087 0.0431859 -0.049305048 0.021432303
0.041021977 -0.011035689 0.040920146 -0.01887457 -0.060853306 0.03567652 -0.03918889 -0.011776439

l3.bias f4 [2]
00000000: 90b9 bf3c 1703 e03c
0.023403913 0.027345223
